node {
  name: "global_step/Initializer/Const"
  op: "Const"
  attr {
    key: "_class"
    value {
      list {
        s: "loc:@global_step"
      }
    }
  }
  attr {
    key: "dtype"
    value {
      type: DT_INT64
    }
  }
  attr {
    key: "value"
    value {
      tensor {
        dtype: DT_INT64
        tensor_shape {
        }
        int64_val: 0
      }
    }
  }
}
node {
  name: "global_step"
  op: "VariableV2"
  attr {
    key: "_class"
    value {
      list {
        s: "loc:@global_step"
      }
    }
  }
  attr {
    key: "container"
    value {
      s: ""
    }
  }
  attr {
    key: "dtype"
    value {
      type: DT_INT64
    }
  }
  attr {
    key: "shape"
    value {
      shape {
      }
    }
  }
  attr {
    key: "shared_name"
    value {
      s: ""
    }
  }
}
node {
  name: "global_step/Assign"
  op: "Assign"
  input: "global_step"
  input: "global_step/Initializer/Const"
  attr {
    key: "T"
    value {
      type: DT_INT64
    }
  }
  attr {
    key: "_class"
    value {
      list {
        s: "loc:@global_step"
      }
    }
  }
  attr {
    key: "use_locking"
    value {
      b: true
    }
  }
  attr {
    key: "validate_shape"
    value {
      b: true
    }
  }
}
node {
  name: "global_step/read"
  op: "Identity"
  input: "global_step"
  attr {
    key: "T"
    value {
      type: DT_INT64
    }
  }
  attr {
    key: "_class"
    value {
      list {
        s: "loc:@global_step"
      }
    }
  }
}
node {
  name: "evaluation_360x640/net/input_images"
  op: "Placeholder"
  attr {
    key: "dtype"
    value {
      type: DT_INT32
    }
  }
  attr {
    key: "shape"
    value {
      shape {
      }
    }
  }
}
node {
  name: "evaluation_360x640/Placeholder"
  op: "Placeholder"
  attr {
    key: "dtype"
    value {
      type: DT_INT32
    }
  }
  attr {
    key: "shape"
    value {
      shape {
        dim {
          size: 3
        }
      }
    }
  }
}
node {
  name: "evaluation_360x640/ssd_preprocessing_train/ToFloat"
  op: "Cast"
  input: "evaluation_360x640/net/input_images"
  attr {
    key: "DstT"
    value {
      type: DT_FLOAT
    }
  }
  attr {
    key: "SrcT"
    value {
      type: DT_INT32
    }
  }
}
node {
  name: "evaluation_360x640/ssd_preprocessing_train/Const"
  op: "Const"
  attr {
    key: "dtype"
    value {
      type: DT_FLOAT
    }
  }
  attr {
    key: "value"
    value {
      tensor {
        dtype: DT_FLOAT
        tensor_shape {
          dim {
            size: 3
          }
        }
        tensor_content: "\000\000\366B\000\000\352B\000\000\320B"
      }
    }
  }
}
node {
  name: "evaluation_360x640/ssd_preprocessing_train/sub"
  op: "Sub"
  input: "evaluation_360x640/ssd_preprocessing_train/ToFloat"
  input: "evaluation_360x640/ssd_preprocessing_train/Const"
  attr {
    key: "T"
    value {
      type: DT_FLOAT
    }
  }
}
node {
  name: "evaluation_360x640/ssd_preprocessing_train/resize_image/Shape"
  op: "Shape"
  input: "evaluation_360x640/ssd_preprocessing_train/sub"
  attr {
    key: "T"
    value {
      type: DT_FLOAT
    }
  }
  attr {
    key: "out_type"
    value {
      type: DT_INT32
    }
  }
}
node {
  name: "evaluation_360x640/ssd_preprocessing_train/resize_image/unstack"
  op: "Unpack"
  input: "evaluation_360x640/ssd_preprocessing_train/resize_image/Shape"
  attr {
    key: "T"
    value {
      type: DT_INT32
    }
  }
  attr {
    key: "axis"
    value {
      i: 0
    }
  }
  attr {
    key: "num"
    value {
      i: 3
    }
  }
}
node {
  name: "evaluation_360x640/ssd_preprocessing_train/resize_image/ExpandDims/dim"
  op: "Const"
  attr {
    key: "dtype"
    value {
      type: DT_INT32
    }
  }
  attr {
    key: "value"
    value {
      tensor {
        dtype: DT_INT32
        tensor_shape {
        }
        int_val: 0
      }
    }
  }
}
node {
  name: "evaluation_360x640/ssd_preprocessing_train/resize_image/ExpandDims"
  op: "ExpandDims"
  input: "evaluation_360x640/ssd_preprocessing_train/sub"
  input: "evaluation_360x640/ssd_preprocessing_train/resize_image/ExpandDims/dim"
  attr {
    key: "T"
    value {
      type: DT_FLOAT
    }
  }
  attr {
    key: "Tdim"
    value {
      type: DT_INT32
    }
  }
}
node {
  name: "evaluation_360x640/ssd_preprocessing_train/resize_image/size"
  op: "Const"
  attr {
    key: "dtype"
    value {
      type: DT_INT32
    }
  }
  attr {
    key: "value"
    value {
      tensor {
        dtype: DT_INT32
        tensor_shape {
          dim {
            size: 2
          }
        }
        tensor_content: "h\001\000\000\200\002\000\000"
      }
    }
  }
}
node {
  name: "evaluation_360x640/ssd_preprocessing_train/resize_image/ResizeBilinear"
  op: "ResizeBilinear"
  input: "evaluation_360x640/ssd_preprocessing_train/resize_image/ExpandDims"
  input: "evaluation_360x640/ssd_preprocessing_train/resize_image/size"
  attr {
    key: "T"
    value {
      type: DT_FLOAT
    }
  }
  attr {
    key: "align_corners"
    value {
      b: false
    }
  }
}
node {
  name: "evaluation_360x640/ssd_preprocessing_train/resize_image/stack"
  op: "Const"
  attr {
    key: "dtype"
    value {
      type: DT_INT32
    }
  }
  attr {
    key: "value"
    value {
      tensor {
        dtype: DT_INT32
        tensor_shape {
          dim {
            size: 3
          }
        }
        tensor_content: "h\001\000\000\200\002\000\000\003\000\000\000"
      }
    }
  }
}
node {
  name: "evaluation_360x640/ssd_preprocessing_train/resize_image/Reshape"
  op: "Reshape"
  input: "evaluation_360x640/ssd_preprocessing_train/resize_image/ResizeBilinear"
  input: "evaluation_360x640/ssd_preprocessing_train/resize_image/stack"
  attr {
    key: "T"
    value {
      type: DT_FLOAT
    }
  }
  attr {
    key: "Tshape"
    value {
      type: DT_INT32
    }
  }
}
node {
  name: "evaluation_360x640/ExpandDims/dim"
  op: "Const"
  attr {
    key: "dtype"
    value {
      type: DT_INT32
    }
  }
  attr {
    key: "value"
    value {
      tensor {
        dtype: DT_INT32
        tensor_shape {
        }
        int_val: 0
      }
    }
  }
}
node {
  name: "evaluation_360x640/ExpandDims"
  op: "ExpandDims"
  input: "evaluation_360x640/ssd_preprocessing_train/resize_image/Reshape"
  input: "evaluation_360x640/ExpandDims/dim"
  attr {
    key: "T"
    value {
      type: DT_FLOAT
    }
  }
  attr {
    key: "Tdim"
    value {
      type: DT_INT32
    }
  }
}
node {
  name: "MobileNet/conv_1/weights/Initializer/random_uniform/shape"
  op: "Const"
  attr {
    key: "_class"
    value {
      list {
        s: "loc:@MobileNet/conv_1/weights"
      }
    }
  }
  attr {
    key: "dtype"
    value {
      type: DT_INT32
    }
  }
  attr {
    key: "value"
    value {
      tensor {
        dtype: DT_INT32
        tensor_shape {
          dim {
            size: 4
          }
        }
        tensor_content: "\003\000\000\000\003\000\000\000\003\000\000\000\020\000\000\000"
      }
    }
  }
}
node {
  name: "MobileNet/conv_1/weights/Initializer/random_uniform/min"
  op: "Const"
  attr {
    key: "_class"
    value {
      list {
        s: "loc:@MobileNet/conv_1/weights"
      }
    }
  }
  attr {
    key: "dtype"
    value {
      type: DT_FLOAT
    }
  }
  attr {
    key: "value"
    value {
      tensor {
        dtype: DT_FLOAT
        tensor_shape {
        }
        float_val: -0.1873171627521515
      }
    }
  }
}
node {
  name: "MobileNet/conv_1/weights/Initializer/random_uniform/max"
  op: "Const"
  attr {
    key: "_class"
    value {
      list {
        s: "loc:@MobileNet/conv_1/weights"
      }
    }
  }
  attr {
    key: "dtype"
    value {
      type: DT_FLOAT
    }
  }
  attr {
    key: "value"
    value {
      tensor {
        dtype: DT_FLOAT
        tensor_shape {
        }
        float_val: 0.1873171627521515
      }
    }
  }
}
node {
  name: "MobileNet/conv_1/weights/Initializer/random_uniform/RandomUniform"
  op: "RandomUniform"
  input: "MobileNet/conv_1/weights/Initializer/random_uniform/shape"
  attr {
    key: "T"
    value {
      type: DT_INT32
    }
  }
  attr {
    key: "_class"
    value {
      list {
        s: "loc:@MobileNet/conv_1/weights"
      }
    }
  }
  attr {
    key: "dtype"
    value {
      type: DT_FLOAT
    }
  }
  attr {
    key: "seed"
    value {
      i: 0
    }
  }
  attr {
    key: "seed2"
    value {
      i: 0
    }
  }
}
node {
  name: "MobileNet/conv_1/weights/Initializer/random_uniform/sub"
  op: "Sub"
  input: "MobileNet/conv_1/weights/Initializer/random_uniform/max"
  input: "MobileNet/conv_1/weights/Initializer/random_uniform/min"
  attr {
    key: "T"
    value {
      type: DT_FLOAT
    }
  }
  attr {
    key: "_class"
    value {
      list {
        s: "loc:@MobileNet/conv_1/weights"
      }
    }
  }
}
node {
  name: "MobileNet/conv_1/weights/Initializer/random_uniform/mul"
  op: "Mul"
  input: "MobileNet/conv_1/weights/Initializer/random_uniform/RandomUniform"
  input: "MobileNet/conv_1/weights/Initializer/random_uniform/sub"
  attr {
    key: "T"
    value {
      type: DT_FLOAT
    }
  }
  attr {
    key: "_class"
    value {
      list {
        s: "loc:@MobileNet/conv_1/weights"
      }
    }
  }
}
node {
  name: "MobileNet/conv_1/weights/Initializer/random_uniform"
  op: "Add"
  input: "MobileNet/conv_1/weights/Initializer/random_uniform/mul"
  input: "MobileNet/conv_1/weights/Initializer/random_uniform/min"
  attr {
    key: "T"
    value {
      type: DT_FLOAT
    }
  }
  attr {
    key: "_class"
    value {
      list {
        s: "loc:@MobileNet/conv_1/weights"
      }
    }
  }
}
node {
  name: "MobileNet/conv_1/weights"
  op: "VariableV2"
  attr {
    key: "_class"
    value {
      list {
        s: "loc:@MobileNet/conv_1/weights"
      }
    }
  }
  attr {
    key: "container"
    value {
      s: ""
    }
  }
  attr {
    key: "dtype"
    value {
      type: DT_FLOAT
    }
  }
  attr {
    key: "shape"
    value {
      shape {
        dim {
          size: 3
        }
        dim {
          size: 3
        }
        dim {
          size: 3
        }
        dim {
          size: 16
        }
      }
    }
  }
  attr {
    key: "shared_name"
    value {
      s: ""
    }
  }
}
node {
  name: "MobileNet/conv_1/weights/Assign"
  op: "Assign"
  input: "MobileNet/conv_1/weights"
  input: "MobileNet/conv_1/weights/Initializer/random_uniform"
  attr {
    key: "T"
    value {
      type: DT_FLOAT
    }
  }
  attr {
    key: "_class"
    value {
      list {
        s: "loc:@MobileNet/conv_1/weights"
      }
    }
  }
  attr {
    key: "use_locking"
    value {
      b: true
    }
  }
  attr {
    key: "validate_shape"
    value {
      b: true
    }
  }
}
node {
  name: "MobileNet/conv_1/weights/read"
  op: "Identity"
  input: "MobileNet/conv_1/weights"
  attr {
    key: "T"
    value {
      type: DT_FLOAT
    }
  }
  attr {
    key: "_class"
    value {
      list {
        s: "loc:@MobileNet/conv_1/weights"
      }
    }
  }
}
node {
  name: "MobileNet/conv_1/kernel/Regularizer/l2_regularizer/scale"
  op: "Const"
  attr {
    key: "_class"
    value {
      list {
        s: "loc:@MobileNet/conv_1/weights"
      }
    }
  }
  attr {
    key: "dtype"
    value {
      type: DT_FLOAT
    }
  }
  attr {
    key: "value"
    value {
      tensor {
        dtype: DT_FLOAT
        tensor_shape {
        }
        float_val: 0.0005000000237487257
      }
    }
  }
}
node {
  name: "MobileNet/conv_1/kernel/Regularizer/l2_regularizer/L2Loss"
  op: "L2Loss"
  input: "MobileNet/conv_1/weights/read"
  attr {
    key: "T"
    value {
      type: DT_FLOAT
    }
  }
  attr {
    key: "_class"
    value {
      list {
        s: "loc:@MobileNet/conv_1/weights"
      }
    }
  }
}
node {
  name: "MobileNet/conv_1/kernel/Regularizer/l2_regularizer"
  op: "Mul"
  input: "MobileNet/conv_1/kernel/Regularizer/l2_regularizer/scale"
  input: "MobileNet/conv_1/kernel/Regularizer/l2_regularizer/L2Loss"
  attr {
    key: "T"
    value {
      type: DT_FLOAT
    }
  }
  attr {
    key: "_class"
    value {
      list {
        s: "loc:@MobileNet/conv_1/weights"
      }
    }
  }
}
node {
  name: "MobileNet/conv_1/biases/Initializer/Const"
  op: "Const"
  attr {
    key: "_class"
    value {
      list {
        s: "loc:@MobileNet/conv_1/biases"
      }
    }
  }
  attr {
    key: "dtype"
    value {
      type: DT_FLOAT
    }
  }
  attr {
    key: "value"
    value {
      tensor {
        dtype: DT_FLOAT
        tensor_shape {
          dim {
            size: 16
          }
        }
        float_val: 0.0
      }
    }
  }
}
node {
  name: "MobileNet/conv_1/biases"
  op: "VariableV2"
  attr {
    key: "_class"
    value {
      list {
        s: "loc:@MobileNet/conv_1/biases"
      }
    }
  }
  attr {
    key: "container"
    value {
      s: ""
    }
  }
  attr {
    key: "dtype"
    value {
      type: DT_FLOAT
    }
  }
  attr {
    key: "shape"
    value {
      shape {
        dim {
          size: 16
        }
      }
    }
  }
  attr {
    key: "shared_name"
    value {
      s: ""
    }
  }
}
node {
  name: "MobileNet/conv_1/biases/Assign"
  op: "Assign"
  input: "MobileNet/conv_1/biases"
  input: "MobileNet/conv_1/biases/Initializer/Const"
  attr {
    key: "T"
    value {
      type: DT_FLOAT
    }
  }
  attr {
    key: "_class"
    value {
      list {
        s: "loc:@MobileNet/conv_1/biases"
      }
    }
  }
  attr {
    key: "use_locking"
    value {
      b: true
    }
  }
  attr {
    key: "validate_shape"
    value {
      b: true
    }
  }
}
node {
  name: "MobileNet/conv_1/biases/read"
  op: "Identity"
  input: "MobileNet/conv_1/biases"
  attr {
    key: "T"
    value {
      type: DT_FLOAT
    }
  }
  attr {
    key: "_class"
    value {
      list {
        s: "loc:@MobileNet/conv_1/biases"
      }
    }
  }
}
node {
  name: "evaluation_360x640/MobileNet/conv_1/convolution/Shape"
  op: "Const"
  attr {
    key: "dtype"
    value {
      type: DT_INT32
    }
  }
  attr {
    key: "value"
    value {
      tensor {
        dtype: DT_INT32
        tensor_shape {
          dim {
            size: 4
          }
        }
        tensor_content: "\003\000\000\000\003\000\000\000\003\000\000\000\020\000\000\000"
      }
    }
  }
}
node {
  name: "evaluation_360x640/MobileNet/conv_1/convolution/dilation_rate"
  op: "Const"
  attr {
    key: "dtype"
    value {
      type: DT_INT32
    }
  }
  attr {
    key: "value"
    value {
      tensor {
        dtype: DT_INT32
        tensor_shape {
          dim {
            size: 2
          }
        }
        tensor_content: "\001\000\000\000\001\000\000\000"
      }
    }
  }
}
node {
  name: "evaluation_360x640/MobileNet/conv_1/convolution"
  op: "Conv2D"
  input: "evaluation_360x640/ExpandDims"
  input: "MobileNet/conv_1/weights/read"
  attr {
    key: "T"
    value {
      type: DT_FLOAT
    }
  }
  attr {
    key: "data_format"
    value {
      s: "NHWC"
    }
  }
  attr {
    key: "padding"
    value {
      s: "SAME"
    }
  }
  attr {
    key: "strides"
    value {
      list {
        i: 1
        i: 2
        i: 2
        i: 1
      }
    }
  }
  attr {
    key: "use_cudnn_on_gpu"
    value {
      b: true
    }
  }
}
node {
  name: "evaluation_360x640/MobileNet/conv_1/BiasAdd"
  op: "BiasAdd"
  input: "evaluation_360x640/MobileNet/conv_1/convolution"
  input: "MobileNet/conv_1/biases/read"
  attr {
    key: "T"
    value {
      type: DT_FLOAT
    }
  }
  attr {
    key: "data_format"
    value {
      s: "NHWC"
    }
  }
}
node {
  name: "MobileNet/conv_1/batch_norm/beta/Initializer/Const"
  op: "Const"
  attr {
    key: "_class"
    value {
      list {
        s: "loc:@MobileNet/conv_1/batch_norm/beta"
      }
    }
  }
  attr {
    key: "dtype"
    value {
      type: DT_FLOAT
    }
  }
  attr {
    key: "value"
    value {
      tensor {
        dtype: DT_FLOAT
        tensor_shape {
          dim {
            size: 16
          }
        }
        float_val: 0.0
      }
    }
  }
}
node {
  name: "MobileNet/conv_1/batch_norm/beta"
  op: "VariableV2"
  attr {
    key: "_class"
    value {
      list {
        s: "loc:@MobileNet/conv_1/batch_norm/beta"
      }
    }
  }
  attr {
    key: "container"
    value {
      s: ""
    }
  }
  attr {
    key: "dtype"
    value {
      type: DT_FLOAT
    }
  }
  attr {
    key: "shape"
    value {
      shape {
        dim {
          size: 16
        }
      }
    }
  }
  attr {
    key: "shared_name"
    value {
      s: ""
    }
  }
}
node {
  name: "MobileNet/conv_1/batch_norm/beta/Assign"
  op: "Assign"
  input: "MobileNet/conv_1/batch_norm/beta"
  input: "MobileNet/conv_1/batch_norm/beta/Initializer/Const"
  attr {
    key: "T"
    value {
      type: DT_FLOAT
    }
  }
  attr {
    key: "_class"
    value {
      list {
        s: "loc:@MobileNet/conv_1/batch_norm/beta"
      }
    }
  }
  attr {
    key: "use_locking"
    value {
      b: true
    }
  }
  attr {
    key: "validate_shape"
    value {
      b: true
    }
  }
}
node {
  name: "MobileNet/conv_1/batch_norm/beta/read"
  op: "Identity"
  input: "MobileNet/conv_1/batch_norm/beta"
  attr {
    key: "T"
    value {
      type: DT_FLOAT
    }
  }
  attr {
    key: "_class"
    value {
      list {
        s: "loc:@MobileNet/conv_1/batch_norm/beta"
      }
    }
  }
}
node {
  name: "MobileNet/conv_1/batch_norm/gamma/Initializer/Const"
  op: "Const"
  attr {
    key: "_class"
    value {
      list {
        s: "loc:@MobileNet/conv_1/batch_norm/gamma"
      }
    }
  }
  attr {
    key: "dtype"
    value {
      type: DT_FLOAT
    }
  }
  attr {
    key: "value"
    value {
      tensor {
        dtype: DT_FLOAT
        tensor_shape {
          dim {
            size: 16
          }
        }
        float_val: 1.0
      }
    }
  }
}
node {
  name: "MobileNet/conv_1/batch_norm/gamma"
  op: "VariableV2"
  attr {
    key: "_class"
    value {
      list {
        s: "loc:@MobileNet/conv_1/batch_norm/gamma"
      }
    }
  }
  attr {
    key: "container"
    value {
      s: ""
    }
  }
  attr {
    key: "dtype"
    value {
      type: DT_FLOAT
    }
  }
  attr {
    key: "shape"
    value {
      shape {
        dim {
          size: 16
        }
      }
    }
  }
  attr {
    key: "shared_name"
    value {
      s: ""
    }
  }
}
node {
  name: "MobileNet/conv_1/batch_norm/gamma/Assign"
  op: "Assign"
  input: "MobileNet/conv_1/batch_norm/gamma"
  input: "MobileNet/conv_1/batch_norm/gamma/Initializer/Const"
  attr {
    key: "T"
    value {
      type: DT_FLOAT
    }
  }
  attr {
    key: "_class"
    value {
      list {
        s: "loc:@MobileNet/conv_1/batch_norm/gamma"
      }
    }
  }
  attr {
    key: "use_locking"
    value {
      b: true
    }
  }
  attr {
    key: "validate_shape"
    value {
      b: true
    }
  }
}
node {
  name: "MobileNet/conv_1/batch_norm/gamma/read"
  op: "Identity"
  input: "MobileNet/conv_1/batch_norm/gamma"
  attr {
    key: "T"
    value {
      type: DT_FLOAT
    }
  }
  attr {
    key: "_class"
    value {
      list {
        s: "loc:@MobileNet/conv_1/batch_norm/gamma"
      }
    }
  }
}
node {
  name: "MobileNet/conv_1/batch_norm/moving_mean/Initializer/Const"
  op: "Const"
  attr {
    key: "_class"
    value {
      list {
        s: "loc:@MobileNet/conv_1/batch_norm/moving_mean"
      }
    }
  }
  attr {
    key: "dtype"
    value {
      type: DT_FLOAT
    }
  }
  attr {
    key: "value"
    value {
      tensor {
        dtype: DT_FLOAT
        tensor_shape {
          dim {
            size: 16
          }
        }
        float_val: 0.0
      }
    }
  }
}
node {
  name: "MobileNet/conv_1/batch_norm/moving_mean"
  op: "VariableV2"
  attr {
    key: "_class"
    value {
      list {
        s: "loc:@MobileNet/conv_1/batch_norm/moving_mean"
      }
    }
  }
  attr {
    key: "container"
    value {
      s: ""
    }
  }
  attr {
    key: "dtype"
    value {
      type: DT_FLOAT
    }
  }
  attr {
    key: "shape"
    value {
      shape {
        dim {
          size: 16
        }
      }
    }
  }
  attr {
    key: "shared_name"
    value {
      s: ""
    }
  }
}
node {
  name: "MobileNet/conv_1/batch_norm/moving_mean/Assign"
  op: "Assign"
  input: "MobileNet/conv_1/batch_norm/moving_mean"
  input: "MobileNet/conv_1/batch_norm/moving_mean/Initializer/Const"
  attr {
    key: "T"
    value {
      type: DT_FLOAT
    }
  }
  attr {
    key: "_class"
    value {
      list {
        s: "loc:@MobileNet/conv_1/batch_norm/moving_mean"
      }
    }
  }
  attr {
    key: "use_locking"
    value {
      b: true
    }
  }
  attr {
    key: "validate_shape"
    value {
      b: true
    }
  }
}
node {
  name: "MobileNet/conv_1/batch_norm/moving_mean/read"
  op: "Identity"
  input: "MobileNet/conv_1/batch_norm/moving_mean"
  attr {
    key: "T"
    value {
      type: DT_FLOAT
    }
  }
  attr {
    key: "_class"
    value {
      list {
        s: "loc:@MobileNet/conv_1/batch_norm/moving_mean"
      }
    }
  }
}
node {
  name: "MobileNet/conv_1/batch_norm/moving_variance/Initializer/Const"
  op: "Const"
  attr {
    key: "_class"
    value {
      list {
        s: "loc:@MobileNet/conv_1/batch_norm/moving_variance"
      }
    }
  }
  attr {
    key: "dtype"
    value {
      type: DT_FLOAT
    }
  }
  attr {
    key: "value"
    value {
      tensor {
        dtype: DT_FLOAT
        tensor_shape {
          dim {
            size: 16
          }
        }
        float_val: 1.0
      }
    }
  }
}
node {
  name: "MobileNet/conv_1/batch_norm/moving_variance"
  op: "VariableV2"
  attr {
    key: "_class"
    value {
      list {
        s: "loc:@MobileNet/conv_1/batch_norm/moving_variance"
      }
    }
  }
  attr {
    key: "container"
    value {
      s: ""
    }
  }
  attr {
    key: "dtype"
    value {
      type: DT_FLOAT
    }
  }
  attr {
    key: "shape"
    value {
      shape {
        dim {
          size: 16
        }
      }
    }
  }
  attr {
    key: "shared_name"
    value {
      s: ""
    }
  }
}
node {
  name: "MobileNet/conv_1/batch_norm/moving_variance/Assign"
  op: "Assign"
  input: "MobileNet/conv_1/batch_norm/moving_variance"
  input: "MobileNet/conv_1/batch_norm/moving_variance/Initializer/Const"
  attr {
    key: "T"
    value {
      type: DT_FLOAT
    }
  }
  attr {
    key: "_class"
    value {
      list {
        s: "loc:@MobileNet/conv_1/batch_norm/moving_variance"
      }
    }
  }
  attr {
    key: "use_locking"
    value {
      b: true
    }
  }
  attr {
    key: "validate_shape"
    value {
      b: true
    }
  }
}
node {
  name: "MobileNet/conv_1/batch_norm/moving_variance/read"
  op: "Identity"
  input: "MobileNet/conv_1/batch_norm/moving_variance"
  attr {
    key: "T"
    value {
      type: DT_FLOAT
    }
  }
  attr {
    key: "_class"
    value {
      list {
        s: "loc:@MobileNet/conv_1/batch_norm/moving_variance"
      }
    }
  }
}
node {
  name: "evaluation_360x640/MobileNet/conv_1/batch_norm/FusedBatchNorm"
  op: "FusedBatchNorm"
  input: "evaluation_360x640/MobileNet/conv_1/BiasAdd"
  input: "MobileNet/conv_1/batch_norm/gamma/read"
  input: "MobileNet/conv_1/batch_norm/beta/read"
  input: "MobileNet/conv_1/batch_norm/moving_mean/read"
  input: "MobileNet/conv_1/batch_norm/moving_variance/read"
  attr {
    key: "T"
    value {
      type: DT_FLOAT
    }
  }
  attr {
    key: "data_format"
    value {
      s: "NHWC"
    }
  }
  attr {
    key: "epsilon"
    value {
      f: 0.0010000000474974513
    }
  }
  attr {
    key: "is_training"
    value {
      b: false
    }
  }
}
node {
  name: "evaluation_360x640/MobileNet/conv_1/batch_norm/Relu"
  op: "Relu"
  input: "evaluation_360x640/MobileNet/conv_1/batch_norm/FusedBatchNorm"
  attr {
    key: "T"
    value {
      type: DT_FLOAT
    }
  }
}
node {
  name: "MobileNet/conv_ds_2/depthwise_conv/depthwise_weights/Initializer/random_uniform/shape"
  op: "Const"
  attr {
    key: "_class"
    value {
      list {
        s: "loc:@MobileNet/conv_ds_2/depthwise_conv/depthwise_weights"
      }
    }
  }
  attr {
    key: "dtype"
    value {
      type: DT_INT32
    }
  }
  attr {
    key: "value"
    value {
      tensor {
        dtype: DT_INT32
        tensor_shape {
          dim {
            size: 4
          }
        }
        tensor_content: "\003\000\000\000\003\000\000\000\020\000\000\000\001\000\000\000"
      }
    }
  }
}
node {
  name: "MobileNet/conv_ds_2/depthwise_conv/depthwise_weights/Initializer/random_uniform/min"
  op: "Const"
  attr {
    key: "_class"
    value {
      list {
        s: "loc:@MobileNet/conv_ds_2/depthwise_conv/depthwise_weights"
      }
    }
  }
  attr {
    key: "dtype"
    value {
      type: DT_FLOAT
    }
  }
  attr {
    key: "value"
    value {
      tensor {
        dtype: DT_FLOAT
        tensor_shape {
        }
        float_val: -0.1980295032262802
      }
    }
  }
}
node {
  name: "MobileNet/conv_ds_2/depthwise_conv/depthwise_weights/Initializer/random_uniform/max"
  op: "Const"
  attr {
    key: "_class"
    value {
      list {
        s: "loc:@MobileNet/conv_ds_2/depthwise_conv/depthwise_weights"
      }
    }
  }
  attr {
    key: "dtype"
    value {
      type: DT_FLOAT
    }
  }
  attr {
    key: "value"
    value {
      tensor {
        dtype: DT_FLOAT
        tensor_shape {
        }
        float_val: 0.1980295032262802
      }
    }
  }
}
node {
  name: "MobileNet/conv_ds_2/depthwise_conv/depthwise_weights/Initializer/random_uniform/RandomUniform"
  op: "RandomUniform"
  input: "MobileNet/conv_ds_2/depthwise_conv/depthwise_weights/Initializer/random_uniform/shape"
  attr {
    key: "T"
    value {
      type: DT_INT32
    }
  }
  attr {
    key: "_class"
    value {
      list {
        s: "loc:@MobileNet/conv_ds_2/depthwise_conv/depthwise_weights"
      }
    }
  }
  attr {
    key: "dtype"
    value {
      type: DT_FLOAT
    }
  }
  attr {
    key: "seed"
    value {
      i: 0
    }
  }
  attr {
    key: "seed2"
    value {
      i: 0
    }
  }
}
node {
  name: "MobileNet/conv_ds_2/depthwise_conv/depthwise_weights/Initializer/random_uniform/sub"
  op: "Sub"
  input: "MobileNet/conv_ds_2/depthwise_conv/depthwise_weights/Initializer/random_uniform/max"
  input: "MobileNet/conv_ds_2/depthwise_conv/depthwise_weights/Initializer/random_uniform/min"
  attr {
    key: "T"
    value {
      type: DT_FLOAT
    }
  }
  attr {
    key: "_class"
    value {
      list {
        s: "loc:@MobileNet/conv_ds_2/depthwise_conv/depthwise_weights"
      }
    }
  }
}
node {
  name: "MobileNet/conv_ds_2/depthwise_conv/depthwise_weights/Initializer/random_uniform/mul"
  op: "Mul"
  input: "MobileNet/conv_ds_2/depthwise_conv/depthwise_weights/Initializer/random_uniform/RandomUniform"
  input: "MobileNet/conv_ds_2/depthwise_conv/depthwise_weights/Initializer/random_uniform/sub"
  attr {
    key: "T"
    value {
      type: DT_FLOAT
    }
  }
  attr {
    key: "_class"
    value {
      list {
        s: "loc:@MobileNet/conv_ds_2/depthwise_conv/depthwise_weights"
      }
    }
  }
}
node {
  name: "MobileNet/conv_ds_2/depthwise_conv/depthwise_weights/Initializer/random_uniform"
  op: "Add"
  input: "MobileNet/conv_ds_2/depthwise_conv/depthwise_weights/Initializer/random_uniform/mul"
  input: "MobileNet/conv_ds_2/depthwise_conv/depthwise_weights/Initializer/random_uniform/min"
  attr {
    key: "T"
    value {
      type: DT_FLOAT
    }
  }
  attr {
    key: "_class"
    value {
      list {
        s: "loc:@MobileNet/conv_ds_2/depthwise_conv/depthwise_weights"
      }
    }
  }
}
node {
  name: "MobileNet/conv_ds_2/depthwise_conv/depthwise_weights"
  op: "VariableV2"
  attr {
    key: "_class"
    value {
      list {
        s: "loc:@MobileNet/conv_ds_2/depthwise_conv/depthwise_weights"
      }
    }
  }
  attr {
    key: "container"
    value {
      s: ""
    }
  }
  attr {
    key: "dtype"
    value {
      type: DT_FLOAT
    }
  }
  attr {
    key: "shape"
    value {
      shape {
        dim {
          size: 3
        }
        dim {
          size: 3
        }
        dim {
          size: 16
        }
        dim {
          size: 1
        }
      }
    }
  }
  attr {
    key: "shared_name"
    value {
      s: ""
    }
  }
}
node {
  name: "MobileNet/conv_ds_2/depthwise_conv/depthwise_weights/Assign"
  op: "Assign"
  input: "MobileNet/conv_ds_2/depthwise_conv/depthwise_weights"
  input: "MobileNet/conv_ds_2/depthwise_conv/depthwise_weights/Initializer/random_uniform"
  attr {
    key: "T"
    value {
      type: DT_FLOAT
    }
  }
  attr {
    key: "_class"
    value {
      list {
        s: "loc:@MobileNet/conv_ds_2/depthwise_conv/depthwise_weights"
      }
    }
  }
  attr {
    key: "use_locking"
    value {
      b: true
    }
  }
  attr {
    key: "validate_shape"
    value {
      b: true
    }
  }
}
node {
  name: "MobileNet/conv_ds_2/depthwise_conv/depthwise_weights/read"
  op: "Identity"
  input: "MobileNet/conv_ds_2/depthwise_conv/depthwise_weights"
  attr {
    key: "T"
    value {
      type: DT_FLOAT
    }
  }
  attr {
    key: "_class"
    value {
      list {
        s: "loc:@MobileNet/conv_ds_2/depthwise_conv/depthwise_weights"
      }
    }
  }
}
node {
  name: "evaluation_360x640/MobileNet/conv_ds_2/depthwise_conv/depthwise/Shape"
  op: "Const"
  attr {
    key: "dtype"
    value {
      type: DT_INT32
    }
  }
  attr {
    key: "value"
    value {
      tensor {
        dtype: DT_INT32
        tensor_shape {
          dim {
            size: 4
          }
        }
        tensor_content: "\003\000\000\000\003\000\000\000\020\000\000\000\001\000\000\000"
      }
    }
  }
}
node {
  name: "evaluation_360x640/MobileNet/conv_ds_2/depthwise_conv/depthwise/dilation_rate"
  op: "Const"
  attr {
    key: "dtype"
    value {
      type: DT_INT32
    }
  }
  attr {
    key: "value"
    value {
      tensor {
        dtype: DT_INT32
        tensor_shape {
          dim {
            size: 2
          }
        }
        tensor_content: "\001\000\000\000\001\000\000\000"
      }
    }
  }
}
node {
  name: "evaluation_360x640/MobileNet/conv_ds_2/depthwise_conv/depthwise"
  op: "DepthwiseConv2dNative"
  input: "evaluation_360x640/MobileNet/conv_1/batch_norm/Relu"
  input: "MobileNet/conv_ds_2/depthwise_conv/depthwise_weights/read"
  attr {
    key: "T"
    value {
      type: DT_FLOAT
    }
  }
  attr {
    key: "data_format"
    value {
      s: "NHWC"
    }
  }
  attr {
    key: "padding"
    value {
      s: "SAME"
    }
  }
  attr {
    key: "strides"
    value {
      list {
        i: 1
        i: 1
        i: 1
        i: 1
      }
    }
  }
}
node {
  name: "MobileNet/conv_ds_2/depthwise_conv/biases/Initializer/Const"
  op: "Const"
  attr {
    key: "_class"
    value {
      list {
        s: "loc:@MobileNet/conv_ds_2/depthwise_conv/biases"
      }
    }
  }
  attr {
    key: "dtype"
    value {
      type: DT_FLOAT
    }
  }
  attr {
    key: "value"
    value {
      tensor {
        dtype: DT_FLOAT
        tensor_shape {
          dim {
            size: 16
          }
        }
        float_val: 0.0
      }
    }
  }
}
node {
  name: "MobileNet/conv_ds_2/depthwise_conv/biases"
  op: "VariableV2"
  attr {
    key: "_class"
    value {
      list {
        s: "loc:@MobileNet/conv_ds_2/depthwise_conv/biases"
      }
    }
  }
  attr {
    key: "container"
    value {
      s: ""
    }
  }
  attr {
    key: "dtype"
    value {
      type: DT_FLOAT
    }
  }
  attr {
    key: "shape"
    value {
      shape {
        dim {
          size: 16
        }
      }
    }
  }
  attr {
    key: "shared_name"
    value {
      s: ""
    }
  }
}
node {
  name: "MobileNet/conv_ds_2/depthwise_conv/biases/Assign"
  op: "Assign"
  input: "MobileNet/conv_ds_2/depthwise_conv/biases"
  input: "MobileNet/conv_ds_2/depthwise_conv/biases/Initializer/Const"
  attr {
    key: "T"
    value {
      type: DT_FLOAT
    }
  }
  attr {
    key: "_class"
    value {
      list {
        s: "loc:@MobileNet/conv_ds_2/depthwise_conv/biases"
      }
    }
  }
  attr {
    key: "use_locking"
    value {
      b: true
    }
  }
  attr {
    key: "validate_shape"
    value {
      b: true
    }
  }
}
node {
  name: "MobileNet/conv_ds_2/depthwise_conv/biases/read"
  op: "Identity"
  input: "MobileNet/conv_ds_2/depthwise_conv/biases"
  attr {
    key: "T"
    value {
      type: DT_FLOAT
    }
  }
  attr {
    key: "_class"
    value {
      list {
        s: "loc:@MobileNet/conv_ds_2/depthwise_conv/biases"
      }
    }
  }
}
node {
  name: "evaluation_360x640/MobileNet/conv_ds_2/depthwise_conv/BiasAdd"
  op: "BiasAdd"
  input: "evaluation_360x640/MobileNet/conv_ds_2/depthwise_conv/depthwise"
  input: "MobileNet/conv_ds_2/depthwise_conv/biases/read"
  attr {
    key: "T"
    value {
      type: DT_FLOAT
    }
  }
  attr {
    key: "data_format"
    value {
      s: "NHWC"
    }
  }
}
node {
  name: "MobileNet/conv_ds_2/dw_batch_norm/beta/Initializer/Const"
  op: "Const"
  attr {
    key: "_class"
    value {
      list {
        s: "loc:@MobileNet/conv_ds_2/dw_batch_norm/beta"
      }
    }
  }
  attr {
    key: "dtype"
    value {
      type: DT_FLOAT
    }
  }
  attr {
    key: "value"
    value {
      tensor {
        dtype: DT_FLOAT
        tensor_shape {
          dim {
            size: 16
          }
        }
        float_val: 0.0
      }
    }
  }
}
node {
  name: "MobileNet/conv_ds_2/dw_batch_norm/beta"
  op: "VariableV2"
  attr {
    key: "_class"
    value {
      list {
        s: "loc:@MobileNet/conv_ds_2/dw_batch_norm/beta"
      }
    }
  }
  attr {
    key: "container"
    value {
      s: ""
    }
  }
  attr {
    key: "dtype"
    value {
      type: DT_FLOAT
    }
  }
  attr {
    key: "shape"
    value {
      shape {
        dim {
          size: 16
        }
      }
    }
  }
  attr {
    key: "shared_name"
    value {
      s: ""
    }
  }
}
node {
  name: "MobileNet/conv_ds_2/dw_batch_norm/beta/Assign"
  op: "Assign"
  input: "MobileNet/conv_ds_2/dw_batch_norm/beta"
  input: "MobileNet/conv_ds_2/dw_batch_norm/beta/Initializer/Const"
  attr {
    key: "T"
    value {
      type: DT_FLOAT
    }
  }
  attr {
    key: "_class"
    value {
      list {
        s: "loc:@MobileNet/conv_ds_2/dw_batch_norm/beta"
      }
    }
  }
  attr {
    key: "use_locking"
    value {
      b: true
    }
  }
  attr {
    key: "validate_shape"
    value {
      b: true
    }
  }
}
node {
  name: "MobileNet/conv_ds_2/dw_batch_norm/beta/read"
  op: "Identity"
  input: "MobileNet/conv_ds_2/dw_batch_norm/beta"
  attr {
    key: "T"
    value {
      type: DT_FLOAT
    }
  }
  attr {
    key: "_class"
    value {
      list {
        s: "loc:@MobileNet/conv_ds_2/dw_batch_norm/beta"
      }
    }
  }
}
node {
  name: "MobileNet/conv_ds_2/dw_batch_norm/gamma/Initializer/Const"
  op: "Const"
  attr {
    key: "_class"
    value {
      list {
        s: "loc:@MobileNet/conv_ds_2/dw_batch_norm/gamma"
      }
    }
  }
  attr {
    key: "dtype"
    value {
      type: DT_FLOAT
    }
  }
  attr {
    key: "value"
    value {
      tensor {
        dtype: DT_FLOAT
        tensor_shape {
          dim {
            size: 16
          }
        }
        float_val: 1.0
      }
    }
  }
}
node {
  name: "MobileNet/conv_ds_2/dw_batch_norm/gamma"
  op: "VariableV2"
  attr {
    key: "_class"
    value {
      list {
        s: "loc:@MobileNet/conv_ds_2/dw_batch_norm/gamma"
      }
    }
  }
  attr {
    key: "container"
    value {
      s: ""
    }
  }
  attr {
    key: "dtype"
    value {
      type: DT_FLOAT
    }
  }
  attr {
    key: "shape"
    value {
      shape {
        dim {
          size: 16
        }
      }
    }
  }
  attr {
    key: "shared_name"
    value {
      s: ""
    }
  }
}
node {
  name: "MobileNet/conv_ds_2/dw_batch_norm/gamma/Assign"
  op: "Assign"
  input: "MobileNet/conv_ds_2/dw_batch_norm/gamma"
  input: "MobileNet/conv_ds_2/dw_batch_norm/gamma/Initializer/Const"
  attr {
    key: "T"
    value {
      type: DT_FLOAT
    }
  }
  attr {
    key: "_class"
    value {
      list {
        s: "loc:@MobileNet/conv_ds_2/dw_batch_norm/gamma"
      }
    }
  }
  attr {
    key: "use_locking"
    value {
      b: true
    }
  }
  attr {
    key: "validate_shape"
    value {
      b: true
    }
  }
}
node {
  name: "MobileNet/conv_ds_2/dw_batch_norm/gamma/read"
  op: "Identity"
  input: "MobileNet/conv_ds_2/dw_batch_norm/gamma"
  attr {
    key: "T"
    value {
      type: DT_FLOAT
    }
  }
  attr {
    key: "_class"
    value {
      list {
        s: "loc:@MobileNet/conv_ds_2/dw_batch_norm/gamma"
      }
    }
  }
}
node {
  name: "MobileNet/conv_ds_2/dw_batch_norm/moving_mean/Initializer/Const"
  op: "Const"
  attr {
    key: "_class"
    value {
      list {
        s: "loc:@MobileNet/conv_ds_2/dw_batch_norm/moving_mean"
      }
    }
  }
  attr {
    key: "dtype"
    value {
      type: DT_FLOAT
    }
  }
  attr {
    key: "value"
    value {
      tensor {
        dtype: DT_FLOAT
        tensor_shape {
          dim {
            size: 16
          }
        }
        float_val: 0.0
      }
    }
  }
}
node {
  name: "MobileNet/conv_ds_2/dw_batch_norm/moving_mean"
  op: "VariableV2"
  attr {
    key: "_class"
    value {
      list {
        s: "loc:@MobileNet/conv_ds_2/dw_batch_norm/moving_mean"
      }
    }
  }
  attr {
    key: "container"
    value {
      s: ""
    }
  }
  attr {
    key: "dtype"
    value {
      type: DT_FLOAT
    }
  }
  attr {
    key: "shape"
    value {
      shape {
        dim {
          size: 16
        }
      }
    }
  }
  attr {
    key: "shared_name"
    value {
      s: ""
    }
  }
}
node {
  name: "MobileNet/conv_ds_2/dw_batch_norm/moving_mean/Assign"
  op: "Assign"
  input: "MobileNet/conv_ds_2/dw_batch_norm/moving_mean"
  input: "MobileNet/conv_ds_2/dw_batch_norm/moving_mean/Initializer/Const"
  attr {
    key: "T"
    value {
      type: DT_FLOAT
    }
  }
  attr {
    key: "_class"
    value {
      list {
        s: "loc:@MobileNet/conv_ds_2/dw_batch_norm/moving_mean"
      }
    }
  }
  attr {
    key: "use_locking"
    value {
      b: true
    }
  }
  attr {
    key: "validate_shape"
    value {
      b: true
    }
  }
}
node {
  name: "MobileNet/conv_ds_2/dw_batch_norm/moving_mean/read"
  op: "Identity"
  input: "MobileNet/conv_ds_2/dw_batch_norm/moving_mean"
  attr {
    key: "T"
    value {
      type: DT_FLOAT
    }
  }
  attr {
    key: "_class"
    value {
      list {
        s: "loc:@MobileNet/conv_ds_2/dw_batch_norm/moving_mean"
      }
    }
  }
}
node {
  name: "MobileNet/conv_ds_2/dw_batch_norm/moving_variance/Initializer/Const"
  op: "Const"
  attr {
    key: "_class"
    value {
      list {
        s: "loc:@MobileNet/conv_ds_2/dw_batch_norm/moving_variance"
      }
    }
  }
  attr {
    key: "dtype"
    value {
      type: DT_FLOAT
    }
  }
  attr {
    key: "value"
    value {
      tensor {
        dtype: DT_FLOAT
        tensor_shape {
          dim {
            size: 16
          }
        }
        float_val: 1.0
      }
    }
  }
}
node {
  name: "MobileNet/conv_ds_2/dw_batch_norm/moving_variance"
  op: "VariableV2"
  attr {
    key: "_class"
    value {
      list {
        s: "loc:@MobileNet/conv_ds_2/dw_batch_norm/moving_variance"
      }
    }
  }
  attr {
    key: "container"
    value {
      s: ""
    }
  }
  attr {
    key: "dtype"
    value {
      type: DT_FLOAT
    }
  }
  attr {
    key: "shape"
    value {
      shape {
        dim {
          size: 16
        }
      }
    }
  }
  attr {
    key: "shared_name"
    value {
      s: ""
    }
  }
}
node {
  name: "MobileNet/conv_ds_2/dw_batch_norm/moving_variance/Assign"
  op: "Assign"
  input: "MobileNet/conv_ds_2/dw_batch_norm/moving_variance"
  input: "MobileNet/conv_ds_2/dw_batch_norm/moving_variance/Initializer/Const"
  attr {
    key: "T"
    value {
      type: DT_FLOAT
    }
  }
  attr {
    key: "_class"
    value {
      list {
        s: "loc:@MobileNet/conv_ds_2/dw_batch_norm/moving_variance"
      }
    }
  }
  attr {
    key: "use_locking"
    value {
      b: true
    }
  }
  attr {
    key: "validate_shape"
    value {
      b: true
    }
  }
}
node {
  name: "MobileNet/conv_ds_2/dw_batch_norm/moving_variance/read"
  op: "Identity"
  input: "MobileNet/conv_ds_2/dw_batch_norm/moving_variance"
  attr {
    key: "T"
    value {
      type: DT_FLOAT
    }
  }
  attr {
    key: "_class"
    value {
      list {
        s: "loc:@MobileNet/conv_ds_2/dw_batch_norm/moving_variance"
      }
    }
  }
}
node {
  name: "evaluation_360x640/MobileNet/conv_ds_2/dw_batch_norm/FusedBatchNorm"
  op: "FusedBatchNorm"
  input: "evaluation_360x640/MobileNet/conv_ds_2/depthwise_conv/BiasAdd"
  input: "MobileNet/conv_ds_2/dw_batch_norm/gamma/read"
  input: "MobileNet/conv_ds_2/dw_batch_norm/beta/read"
  input: "MobileNet/conv_ds_2/dw_batch_norm/moving_mean/read"
  input: "MobileNet/conv_ds_2/dw_batch_norm/moving_variance/read"
  attr {
    key: "T"
    value {
      type: DT_FLOAT
    }
  }
  attr {
    key: "data_format"
    value {
      s: "NHWC"
    }
  }
  attr {
    key: "epsilon"
    value {
      f: 0.0010000000474974513
    }
  }
  attr {
    key: "is_training"
    value {
      b: false
    }
  }
}
node {
  name: "evaluation_360x640/MobileNet/conv_ds_2/dw_batch_norm/Relu"
  op: "Relu"
  input: "evaluation_360x640/MobileNet/conv_ds_2/dw_batch_norm/FusedBatchNorm"
  attr {
    key: "T"
    value {
      type: DT_FLOAT
    }
  }
}
node {
  name: "MobileNet/conv_ds_2/pointwise_conv/weights/Initializer/random_uniform/shape"
  op: "Const"
  attr {
    key: "_class"
    value {
      list {
        s: "loc:@MobileNet/conv_ds_2/pointwise_conv/weights"
      }
    }
  }
  attr {
    key: "dtype"
    value {
      type: DT_INT32
    }
  }
  attr {
    key: "value"
    value {
      tensor {
        dtype: DT_INT32
        tensor_shape {
          dim {
            size: 4
          }
        }
        tensor_content: "\001\000\000\000\001\000\000\000\020\000\000\000 \000\000\000"
      }
    }
  }
}
node {
  name: "MobileNet/conv_ds_2/pointwise_conv/weights/Initializer/random_uniform/min"
  op: "Const"
  attr {
    key: "_class"
    value {
      list {
        s: "loc:@MobileNet/conv_ds_2/pointwise_conv/weights"
      }
    }
  }
  attr {
    key: "dtype"
    value {
      type: DT_FLOAT
    }
  }
  attr {
    key: "value"
    value {
      tensor {
        dtype: DT_FLOAT
        tensor_shape {
        }
        float_val: -0.3535533845424652
      }
    }
  }
}
node {
  name: "MobileNet/conv_ds_2/pointwise_conv/weights/Initializer/random_uniform/max"
  op: "Const"
  attr {
    key: "_class"
    value {
      list {
        s: "loc:@MobileNet/conv_ds_2/pointwise_conv/weights"
      }
    }
  }
  attr {
    key: "dtype"
    value {
      type: DT_FLOAT
    }
  }
  attr {
    key: "value"
    value {
      tensor {
        dtype: DT_FLOAT
        tensor_shape {
        }
        float_val: 0.3535533845424652
      }
    }
  }
}
node {
  name: "MobileNet/conv_ds_2/pointwise_conv/weights/Initializer/random_uniform/RandomUniform"
  op: "RandomUniform"
  input: "MobileNet/conv_ds_2/pointwise_conv/weights/Initializer/random_uniform/shape"
  attr {
    key: "T"
    value {
      type: DT_INT32
    }
  }
  attr {
    key: "_class"
    value {
      list {
        s: "loc:@MobileNet/conv_ds_2/pointwise_conv/weights"
      }
    }
  }
  attr {
    key: "dtype"
    value {
      type: DT_FLOAT
    }
  }
  attr {
    key: "seed"
    value {
      i: 0
    }
  }
  attr {
    key: "seed2"
    value {
      i: 0
    }
  }
}
node {
  name: "MobileNet/conv_ds_2/pointwise_conv/weights/Initializer/random_uniform/sub"
  op: "Sub"
  input: "MobileNet/conv_ds_2/pointwise_conv/weights/Initializer/random_uniform/max"
  input: "MobileNet/conv_ds_2/pointwise_conv/weights/Initializer/random_uniform/min"
  attr {
    key: "T"
    value {
      type: DT_FLOAT
    }
  }
  attr {
    key: "_class"
    value {
      list {
        s: "loc:@MobileNet/conv_ds_2/pointwise_conv/weights"
      }
    }
  }
}
node {
  name: "MobileNet/conv_ds_2/pointwise_conv/weights/Initializer/random_uniform/mul"
  op: "Mul"
  input: "MobileNet/conv_ds_2/pointwise_conv/weights/Initializer/random_uniform/RandomUniform"
  input: "MobileNet/conv_ds_2/pointwise_conv/weights/Initializer/random_uniform/sub"
  attr {
    key: "T"
    value {
      type: DT_FLOAT
    }
  }
  attr {
    key: "_class"
    value {
      list {
        s: "loc:@MobileNet/conv_ds_2/pointwise_conv/weights"
      }
    }
  }
}
node {
  name: "MobileNet/conv_ds_2/pointwise_conv/weights/Initializer/random_uniform"
  op: "Add"
  input: "MobileNet/conv_ds_2/pointwise_conv/weights/Initializer/random_uniform/mul"
  input: "MobileNet/conv_ds_2/pointwise_conv/weights/Initializer/random_uniform/min"
  attr {
    key: "T"
    value {
      type: DT_FLOAT
    }
  }
  attr {
    key: "_class"
    value {
      list {
        s: "loc:@MobileNet/conv_ds_2/pointwise_conv/weights"
      }
    }
  }
}
node {
  name: "MobileNet/conv_ds_2/pointwise_conv/weights"
  op: "VariableV2"
  attr {
    key: "_class"
    value {
      list {
        s: "loc:@MobileNet/conv_ds_2/pointwise_conv/weights"
      }
    }
  }
  attr {
    key: "container"
    value {
      s: ""
    }
  }
  attr {
    key: "dtype"
    value {
      type: DT_FLOAT
    }
  }
  attr {
    key: "shape"
    value {
      shape {
        dim {
          size: 1
        }
        dim {
          size: 1
        }
        dim {
          size: 16
        }
        dim {
          size: 32
        }
      }
    }
  }
  attr {
    key: "shared_name"
    value {
      s: ""
    }
  }
}
node {
  name: "MobileNet/conv_ds_2/pointwise_conv/weights/Assign"
  op: "Assign"
  input: "MobileNet/conv_ds_2/pointwise_conv/weights"
  input: "MobileNet/conv_ds_2/pointwise_conv/weights/Initializer/random_uniform"
  attr {
    key: "T"
    value {
      type: DT_FLOAT
    }
  }
  attr {
    key: "_class"
    value {
      list {
        s: "loc:@MobileNet/conv_ds_2/pointwise_conv/weights"
      }
    }
  }
  attr {
    key: "use_locking"
    value {
      b: true
    }
  }
  attr {
    key: "validate_shape"
    value {
      b: true
    }
  }
}
node {
  name: "MobileNet/conv_ds_2/pointwise_conv/weights/read"
  op: "Identity"
  input: "MobileNet/conv_ds_2/pointwise_conv/weights"
  attr {
    key: "T"
    value {
      type: DT_FLOAT
    }
  }
  attr {
    key: "_class"
    value {
      list {
        s: "loc:@MobileNet/conv_ds_2/pointwise_conv/weights"
      }
    }
  }
}
node {
  name: "MobileNet/conv_ds_2/pointwise_conv/kernel/Regularizer/l2_regularizer/scale"
  op: "Const"
  attr {
    key: "_class"
    value {
      list {
        s: "loc:@MobileNet/conv_ds_2/pointwise_conv/weights"
      }
    }
  }
  attr {
    key: "dtype"
    value {
      type: DT_FLOAT
    }
  }
  attr {
    key: "value"
    value {
      tensor {
        dtype: DT_FLOAT
        tensor_shape {
        }
        float_val: 0.0005000000237487257
      }
    }
  }
}
node {
  name: "MobileNet/conv_ds_2/pointwise_conv/kernel/Regularizer/l2_regularizer/L2Loss"
  op: "L2Loss"
  input: "MobileNet/conv_ds_2/pointwise_conv/weights/read"
  attr {
    key: "T"
    value {
      type: DT_FLOAT
    }
  }
  attr {
    key: "_class"
    value {
      list {
        s: "loc:@MobileNet/conv_ds_2/pointwise_conv/weights"
      }
    }
  }
}
node {
  name: "MobileNet/conv_ds_2/pointwise_conv/kernel/Regularizer/l2_regularizer"
  op: "Mul"
  input: "MobileNet/conv_ds_2/pointwise_conv/kernel/Regularizer/l2_regularizer/scale"
  input: "MobileNet/conv_ds_2/pointwise_conv/kernel/Regularizer/l2_regularizer/L2Loss"
  attr {
    key: "T"
    value {
      type: DT_FLOAT
    }
  }
  attr {
    key: "_class"
    value {
      list {
        s: "loc:@MobileNet/conv_ds_2/pointwise_conv/weights"
      }
    }
  }
}
node {
  name: "MobileNet/conv_ds_2/pointwise_conv/biases/Initializer/Const"
  op: "Const"
  attr {
    key: "_class"
    value {
      list {
        s: "loc:@MobileNet/conv_ds_2/pointwise_conv/biases"
      }
    }
  }
  attr {
    key: "dtype"
    value {
      type: DT_FLOAT
    }
  }
  attr {
    key: "value"
    value {
      tensor {
        dtype: DT_FLOAT
        tensor_shape {
          dim {
            size: 32
          }
        }
        float_val: 0.0
      }
    }
  }
}
node {
  name: "MobileNet/conv_ds_2/pointwise_conv/biases"
  op: "VariableV2"
  attr {
    key: "_class"
    value {
      list {
        s: "loc:@MobileNet/conv_ds_2/pointwise_conv/biases"
      }
    }
  }
  attr {
    key: "container"
    value {
      s: ""
    }
  }
  attr {
    key: "dtype"
    value {
      type: DT_FLOAT
    }
  }
  attr {
    key: "shape"
    value {
      shape {
        dim {
          size: 32
        }
      }
    }
  }
  attr {
    key: "shared_name"
    value {
      s: ""
    }
  }
}
node {
  name: "MobileNet/conv_ds_2/pointwise_conv/biases/Assign"
  op: "Assign"
  input: "MobileNet/conv_ds_2/pointwise_conv/biases"
  input: "MobileNet/conv_ds_2/pointwise_conv/biases/Initializer/Const"
  attr {
    key: "T"
    value {
      type: DT_FLOAT
    }
  }
  attr {
    key: "_class"
    value {
      list {
        s: "loc:@MobileNet/conv_ds_2/pointwise_conv/biases"
      }
    }
  }
  attr {
    key: "use_locking"
    value {
      b: true
    }
  }
  attr {
    key: "validate_shape"
    value {
      b: true
    }
  }
}
node {
  name: "MobileNet/conv_ds_2/pointwise_conv/biases/read"
  op: "Identity"
  input: "MobileNet/conv_ds_2/pointwise_conv/biases"
  attr {
    key: "T"
    value {
      type: DT_FLOAT
    }
  }
  attr {
    key: "_class"
    value {
      list {
        s: "loc:@MobileNet/conv_ds_2/pointwise_conv/biases"
      }
    }
  }
}
node {
  name: "evaluation_360x640/MobileNet/conv_ds_2/pointwise_conv/convolution/Shape"
  op: "Const"
  attr {
    key: "dtype"
    value {
      type: DT_INT32
    }
  }
  attr {
    key: "value"
    value {
      tensor {
        dtype: DT_INT32
        tensor_shape {
          dim {
            size: 4
          }
        }
        tensor_content: "\001\000\000\000\001\000\000\000\020\000\000\000 \000\000\000"
      }
    }
  }
}
node {
  name: "evaluation_360x640/MobileNet/conv_ds_2/pointwise_conv/convolution/dilation_rate"
  op: "Const"
  attr {
    key: "dtype"
    value {
      type: DT_INT32
    }
  }
  attr {
    key: "value"
    value {
      tensor {
        dtype: DT_INT32
        tensor_shape {
          dim {
            size: 2
          }
        }
        tensor_content: "\001\000\000\000\001\000\000\000"
      }
    }
  }
}
node {
  name: "evaluation_360x640/MobileNet/conv_ds_2/pointwise_conv/convolution"
  op: "Conv2D"
  input: "evaluation_360x640/MobileNet/conv_ds_2/dw_batch_norm/Relu"
  input: "MobileNet/conv_ds_2/pointwise_conv/weights/read"
  attr {
    key: "T"
    value {
      type: DT_FLOAT
    }
  }
  attr {
    key: "data_format"
    value {
      s: "NHWC"
    }
  }
  attr {
    key: "padding"
    value {
      s: "SAME"
    }
  }
  attr {
    key: "strides"
    value {
      list {
        i: 1
        i: 1
        i: 1
        i: 1
      }
    }
  }
  attr {
    key: "use_cudnn_on_gpu"
    value {
      b: true
    }
  }
}
node {
  name: "evaluation_360x640/MobileNet/conv_ds_2/pointwise_conv/BiasAdd"
  op: "BiasAdd"
  input: "evaluation_360x640/MobileNet/conv_ds_2/pointwise_conv/convolution"
  input: "MobileNet/conv_ds_2/pointwise_conv/biases/read"
  attr {
    key: "T"
    value {
      type: DT_FLOAT
    }
  }
  attr {
    key: "data_format"
    value {
      s: "NHWC"
    }
  }
}
node {
  name: "MobileNet/conv_ds_2/pw_batch_norm/beta/Initializer/Const"
  op: "Const"
  attr {
    key: "_class"
    value {
      list {
        s: "loc:@MobileNet/conv_ds_2/pw_batch_norm/beta"
      }
    }
  }
  attr {
    key: "dtype"
    value {
      type: DT_FLOAT
    }
  }
  attr {
    key: "value"
    value {
      tensor {
        dtype: DT_FLOAT
        tensor_shape {
          dim {
            size: 32
          }
        }
        float_val: 0.0
      }
    }
  }
}
node {
  name: "MobileNet/conv_ds_2/pw_batch_norm/beta"
  op: "VariableV2"
  attr {
    key: "_class"
    value {
      list {
        s: "loc:@MobileNet/conv_ds_2/pw_batch_norm/beta"
      }
    }
  }
  attr {
    key: "container"
    value {
      s: ""
    }
  }
  attr {
    key: "dtype"
    value {
      type: DT_FLOAT
    }
  }
  attr {
    key: "shape"
    value {
      shape {
        dim {
          size: 32
        }
      }
    }
  }
  attr {
    key: "shared_name"
    value {
      s: ""
    }
  }
}
node {
  name: "MobileNet/conv_ds_2/pw_batch_norm/beta/Assign"
  op: "Assign"
  input: "MobileNet/conv_ds_2/pw_batch_norm/beta"
  input: "MobileNet/conv_ds_2/pw_batch_norm/beta/Initializer/Const"
  attr {
    key: "T"
    value {
      type: DT_FLOAT
    }
  }
  attr {
    key: "_class"
    value {
      list {
        s: "loc:@MobileNet/conv_ds_2/pw_batch_norm/beta"
      }
    }
  }
  attr {
    key: "use_locking"
    value {
      b: true
    }
  }
  attr {
    key: "validate_shape"
    value {
      b: true
    }
  }
}
node {
  name: "MobileNet/conv_ds_2/pw_batch_norm/beta/read"
  op: "Identity"
  input: "MobileNet/conv_ds_2/pw_batch_norm/beta"
  attr {
    key: "T"
    value {
      type: DT_FLOAT
    }
  }
  attr {
    key: "_class"
    value {
      list {
        s: "loc:@MobileNet/conv_ds_2/pw_batch_norm/beta"
      }
    }
  }
}
node {
  name: "MobileNet/conv_ds_2/pw_batch_norm/gamma/Initializer/Const"
  op: "Const"
  attr {
    key: "_class"
    value {
      list {
        s: "loc:@MobileNet/conv_ds_2/pw_batch_norm/gamma"
      }
    }
  }
  attr {
    key: "dtype"
    value {
      type: DT_FLOAT
    }
  }
  attr {
    key: "value"
    value {
      tensor {
        dtype: DT_FLOAT
        tensor_shape {
          dim {
            size: 32
          }
        }
        float_val: 1.0
      }
    }
  }
}
node {
  name: "MobileNet/conv_ds_2/pw_batch_norm/gamma"
  op: "VariableV2"
  attr {
    key: "_class"
    value {
      list {
        s: "loc:@MobileNet/conv_ds_2/pw_batch_norm/gamma"
      }
    }
  }
  attr {
    key: "container"
    value {
      s: ""
    }
  }
  attr {
    key: "dtype"
    value {
      type: DT_FLOAT
    }
  }
  attr {
    key: "shape"
    value {
      shape {
        dim {
          size: 32
        }
      }
    }
  }
  attr {
    key: "shared_name"
    value {
      s: ""
    }
  }
}
node {
  name: "MobileNet/conv_ds_2/pw_batch_norm/gamma/Assign"
  op: "Assign"
  input: "MobileNet/conv_ds_2/pw_batch_norm/gamma"
  input: "MobileNet/conv_ds_2/pw_batch_norm/gamma/Initializer/Const"
  attr {
    key: "T"
    value {
      type: DT_FLOAT
    }
  }
  attr {
    key: "_class"
    value {
      list {
        s: "loc:@MobileNet/conv_ds_2/pw_batch_norm/gamma"
      }
    }
  }
  attr {
    key: "use_locking"
    value {
      b: true
    }
  }
  attr {
    key: "validate_shape"
    value {
      b: true
    }
  }
}
node {
  name: "MobileNet/conv_ds_2/pw_batch_norm/gamma/read"
  op: "Identity"
  input: "MobileNet/conv_ds_2/pw_batch_norm/gamma"
  attr {
    key: "T"
    value {
      type: DT_FLOAT
    }
  }
  attr {
    key: "_class"
    value {
      list {
        s: "loc:@MobileNet/conv_ds_2/pw_batch_norm/gamma"
      }
    }
  }
}
node {
  name: "MobileNet/conv_ds_2/pw_batch_norm/moving_mean/Initializer/Const"
  op: "Const"
  attr {
    key: "_class"
    value {
      list {
        s: "loc:@MobileNet/conv_ds_2/pw_batch_norm/moving_mean"
      }
    }
  }
  attr {
    key: "dtype"
    value {
      type: DT_FLOAT
    }
  }
  attr {
    key: "value"
    value {
      tensor {
        dtype: DT_FLOAT
        tensor_shape {
          dim {
            size: 32
          }
        }
        float_val: 0.0
      }
    }
  }
}
node {
  name: "MobileNet/conv_ds_2/pw_batch_norm/moving_mean"
  op: "VariableV2"
  attr {
    key: "_class"
    value {
      list {
        s: "loc:@MobileNet/conv_ds_2/pw_batch_norm/moving_mean"
      }
    }
  }
  attr {
    key: "container"
    value {
      s: ""
    }
  }
  attr {
    key: "dtype"
    value {
      type: DT_FLOAT
    }
  }
  attr {
    key: "shape"
    value {
      shape {
        dim {
          size: 32
        }
      }
    }
  }
  attr {
    key: "shared_name"
    value {
      s: ""
    }
  }
}
node {
  name: "MobileNet/conv_ds_2/pw_batch_norm/moving_mean/Assign"
  op: "Assign"
  input: "MobileNet/conv_ds_2/pw_batch_norm/moving_mean"
  input: "MobileNet/conv_ds_2/pw_batch_norm/moving_mean/Initializer/Const"
  attr {
    key: "T"
    value {
      type: DT_FLOAT
    }
  }
  attr {
    key: "_class"
    value {
      list {
        s: "loc:@MobileNet/conv_ds_2/pw_batch_norm/moving_mean"
      }
    }
  }
  attr {
    key: "use_locking"
    value {
      b: true
    }
  }
  attr {
    key: "validate_shape"
    value {
      b: true
    }
  }
}
node {
  name: "MobileNet/conv_ds_2/pw_batch_norm/moving_mean/read"
  op: "Identity"
  input: "MobileNet/conv_ds_2/pw_batch_norm/moving_mean"
  attr {
    key: "T"
    value {
      type: DT_FLOAT
    }
  }
  attr {
    key: "_class"
    value {
      list {
        s: "loc:@MobileNet/conv_ds_2/pw_batch_norm/moving_mean"
      }
    }
  }
}
node {
  name: "MobileNet/conv_ds_2/pw_batch_norm/moving_variance/Initializer/Const"
  op: "Const"
  attr {
    key: "_class"
    value {
      list {
        s: "loc:@MobileNet/conv_ds_2/pw_batch_norm/moving_variance"
      }
    }
  }
  attr {
    key: "dtype"
    value {
      type: DT_FLOAT
    }
  }
  attr {
    key: "value"
    value {
      tensor {
        dtype: DT_FLOAT
        tensor_shape {
          dim {
            size: 32
          }
        }
        float_val: 1.0
      }
    }
  }
}
node {
  name: "MobileNet/conv_ds_2/pw_batch_norm/moving_variance"
  op: "VariableV2"
  attr {
    key: "_class"
    value {
      list {
        s: "loc:@MobileNet/conv_ds_2/pw_batch_norm/moving_variance"
      }
    }
  }
  attr {
    key: "container"
    value {
      s: ""
    }
  }
  attr {
    key: "dtype"
    value {
      type: DT_FLOAT
    }
  }
  attr {
    key: "shape"
    value {
      shape {
        dim {
          size: 32
        }
      }
    }
  }
  attr {
    key: "shared_name"
    value {
      s: ""
    }
  }
}
node {
  name: "MobileNet/conv_ds_2/pw_batch_norm/moving_variance/Assign"
  op: "Assign"
  input: "MobileNet/conv_ds_2/pw_batch_norm/moving_variance"
  input: "MobileNet/conv_ds_2/pw_batch_norm/moving_variance/Initializer/Const"
  attr {
    key: "T"
    value {
      type: DT_FLOAT
    }
  }
  attr {
    key: "_class"
    value {
      list {
        s: "loc:@MobileNet/conv_ds_2/pw_batch_norm/moving_variance"
      }
    }
  }
  attr {
    key: "use_locking"
    value {
      b: true
    }
  }
  attr {
    key: "validate_shape"
    value {
      b: true
    }
  }
}
node {
  name: "MobileNet/conv_ds_2/pw_batch_norm/moving_variance/read"
  op: "Identity"
  input: "MobileNet/conv_ds_2/pw_batch_norm/moving_variance"
  attr {
    key: "T"
    value {
      type: DT_FLOAT
    }
  }
  attr {
    key: "_class"
    value {
      list {
        s: "loc:@MobileNet/conv_ds_2/pw_batch_norm/moving_variance"
      }
    }
  }
}
node {
  name: "evaluation_360x640/MobileNet/conv_ds_2/pw_batch_norm/FusedBatchNorm"
  op: "FusedBatchNorm"
  input: "evaluation_360x640/MobileNet/conv_ds_2/pointwise_conv/BiasAdd"
  input: "MobileNet/conv_ds_2/pw_batch_norm/gamma/read"
  input: "MobileNet/conv_ds_2/pw_batch_norm/beta/read"
  input: "MobileNet/conv_ds_2/pw_batch_norm/moving_mean/read"
  input: "MobileNet/conv_ds_2/pw_batch_norm/moving_variance/read"
  attr {
    key: "T"
    value {
      type: DT_FLOAT
    }
  }
  attr {
    key: "data_format"
    value {
      s: "NHWC"
    }
  }
  attr {
    key: "epsilon"
    value {
      f: 0.0010000000474974513
    }
  }
  attr {
    key: "is_training"
    value {
      b: false
    }
  }
}
node {
  name: "evaluation_360x640/MobileNet/conv_ds_2/pw_batch_norm/Relu"
  op: "Relu"
  input: "evaluation_360x640/MobileNet/conv_ds_2/pw_batch_norm/FusedBatchNorm"
  attr {
    key: "T"
    value {
      type: DT_FLOAT
    }
  }
}
node {
  name: "MobileNet/conv_ds_3/depthwise_conv/depthwise_weights/Initializer/random_uniform/shape"
  op: "Const"
  attr {
    key: "_class"
    value {
      list {
        s: "loc:@MobileNet/conv_ds_3/depthwise_conv/depthwise_weights"
      }
    }
  }
  attr {
    key: "dtype"
    value {
      type: DT_INT32
    }
  }
  attr {
    key: "value"
    value {
      tensor {
        dtype: DT_INT32
        tensor_shape {
          dim {
            size: 4
          }
        }
        tensor_content: "\003\000\000\000\003\000\000\000 \000\000\000\001\000\000\000"
      }
    }
  }
}
node {
  name: "MobileNet/conv_ds_3/depthwise_conv/depthwise_weights/Initializer/random_uniform/min"
  op: "Const"
  attr {
    key: "_class"
    value {
      list {
        s: "loc:@MobileNet/conv_ds_3/depthwise_conv/depthwise_weights"
      }
    }
  }
  attr {
    key: "dtype"
    value {
      type: DT_FLOAT
    }
  }
  attr {
    key: "value"
    value {
      tensor {
        dtype: DT_FLOAT
        tensor_shape {
        }
        float_val: -0.14213381707668304
      }
    }
  }
}
node {
  name: "MobileNet/conv_ds_3/depthwise_conv/depthwise_weights/Initializer/random_uniform/max"
  op: "Const"
  attr {
    key: "_class"
    value {
      list {
        s: "loc:@MobileNet/conv_ds_3/depthwise_conv/depthwise_weights"
      }
    }
  }
  attr {
    key: "dtype"
    value {
      type: DT_FLOAT
    }
  }
  attr {
    key: "value"
    value {
      tensor {
        dtype: DT_FLOAT
        tensor_shape {
        }
        float_val: 0.14213381707668304
      }
    }
  }
}
node {
  name: "MobileNet/conv_ds_3/depthwise_conv/depthwise_weights/Initializer/random_uniform/RandomUniform"
  op: "RandomUniform"
  input: "MobileNet/conv_ds_3/depthwise_conv/depthwise_weights/Initializer/random_uniform/shape"
  attr {
    key: "T"
    value {
      type: DT_INT32
    }
  }
  attr {
    key: "_class"
    value {
      list {
        s: "loc:@MobileNet/conv_ds_3/depthwise_conv/depthwise_weights"
      }
    }
  }
  attr {
    key: "dtype"
    value {
      type: DT_FLOAT
    }
  }
  attr {
    key: "seed"
    value {
      i: 0
    }
  }
  attr {
    key: "seed2"
    value {
      i: 0
    }
  }
}
node {
  name: "MobileNet/conv_ds_3/depthwise_conv/depthwise_weights/Initializer/random_uniform/sub"
  op: "Sub"
  input: "MobileNet/conv_ds_3/depthwise_conv/depthwise_weights/Initializer/random_uniform/max"
  input: "MobileNet/conv_ds_3/depthwise_conv/depthwise_weights/Initializer/random_uniform/min"
  attr {
    key: "T"
    value {
      type: DT_FLOAT
    }
  }
  attr {
    key: "_class"
    value {
      list {
        s: "loc:@MobileNet/conv_ds_3/depthwise_conv/depthwise_weights"
      }
    }
  }
}
node {
  name: "MobileNet/conv_ds_3/depthwise_conv/depthwise_weights/Initializer/random_uniform/mul"
  op: "Mul"
  input: "MobileNet/conv_ds_3/depthwise_conv/depthwise_weights/Initializer/random_uniform/RandomUniform"
  input: "MobileNet/conv_ds_3/depthwise_conv/depthwise_weights/Initializer/random_uniform/sub"
  attr {
    key: "T"
    value {
      type: DT_FLOAT
    }
  }
  attr {
    key: "_class"
    value {
      list {
        s: "loc:@MobileNet/conv_ds_3/depthwise_conv/depthwise_weights"
      }
    }
  }
}
node {
  name: "MobileNet/conv_ds_3/depthwise_conv/depthwise_weights/Initializer/random_uniform"
  op: "Add"
  input: "MobileNet/conv_ds_3/depthwise_conv/depthwise_weights/Initializer/random_uniform/mul"
  input: "MobileNet/conv_ds_3/depthwise_conv/depthwise_weights/Initializer/random_uniform/min"
  attr {
    key: "T"
    value {
      type: DT_FLOAT
    }
  }
  attr {
    key: "_class"
    value {
      list {
        s: "loc:@MobileNet/conv_ds_3/depthwise_conv/depthwise_weights"
      }
    }
  }
}
node {
  name: "MobileNet/conv_ds_3/depthwise_conv/depthwise_weights"
  op: "VariableV2"
  attr {
    key: "_class"
    value {
      list {
        s: "loc:@MobileNet/conv_ds_3/depthwise_conv/depthwise_weights"
      }
    }
  }
  attr {
    key: "container"
    value {
      s: ""
    }
  }
  attr {
    key: "dtype"
    value {
      type: DT_FLOAT
    }
  }
  attr {
    key: "shape"
    value {
      shape {
        dim {
          size: 3
        }
        dim {
          size: 3
        }
        dim {
          size: 32
        }
        dim {
          size: 1
        }
      }
    }
  }
  attr {
    key: "shared_name"
    value {
      s: ""
    }
  }
}
node {
  name: "MobileNet/conv_ds_3/depthwise_conv/depthwise_weights/Assign"
  op: "Assign"
  input: "MobileNet/conv_ds_3/depthwise_conv/depthwise_weights"
  input: "MobileNet/conv_ds_3/depthwise_conv/depthwise_weights/Initializer/random_uniform"
  attr {
    key: "T"
    value {
      type: DT_FLOAT
    }
  }
  attr {
    key: "_class"
    value {
      list {
        s: "loc:@MobileNet/conv_ds_3/depthwise_conv/depthwise_weights"
      }
    }
  }
  attr {
    key: "use_locking"
    value {
      b: true
    }
  }
  attr {
    key: "validate_shape"
    value {
      b: true
    }
  }
}
node {
  name: "MobileNet/conv_ds_3/depthwise_conv/depthwise_weights/read"
  op: "Identity"
  input: "MobileNet/conv_ds_3/depthwise_conv/depthwise_weights"
  attr {
    key: "T"
    value {
      type: DT_FLOAT
    }
  }
  attr {
    key: "_class"
    value {
      list {
        s: "loc:@MobileNet/conv_ds_3/depthwise_conv/depthwise_weights"
      }
    }
  }
}
node {
  name: "evaluation_360x640/MobileNet/conv_ds_3/depthwise_conv/depthwise/Shape"
  op: "Const"
  attr {
    key: "dtype"
    value {
      type: DT_INT32
    }
  }
  attr {
    key: "value"
    value {
      tensor {
        dtype: DT_INT32
        tensor_shape {
          dim {
            size: 4
          }
        }
        tensor_content: "\003\000\000\000\003\000\000\000 \000\000\000\001\000\000\000"
      }
    }
  }
}
node {
  name: "evaluation_360x640/MobileNet/conv_ds_3/depthwise_conv/depthwise/dilation_rate"
  op: "Const"
  attr {
    key: "dtype"
    value {
      type: DT_INT32
    }
  }
  attr {
    key: "value"
    value {
      tensor {
        dtype: DT_INT32
        tensor_shape {
          dim {
            size: 2
          }
        }
        tensor_content: "\001\000\000\000\001\000\000\000"
      }
    }
  }
}
node {
  name: "evaluation_360x640/MobileNet/conv_ds_3/depthwise_conv/depthwise"
  op: "DepthwiseConv2dNative"
  input: "evaluation_360x640/MobileNet/conv_ds_2/pw_batch_norm/Relu"
  input: "MobileNet/conv_ds_3/depthwise_conv/depthwise_weights/read"
  attr {
    key: "T"
    value {
      type: DT_FLOAT
    }
  }
  attr {
    key: "data_format"
    value {
      s: "NHWC"
    }
  }
  attr {
    key: "padding"
    value {
      s: "SAME"
    }
  }
  attr {
    key: "strides"
    value {
      list {
        i: 1
        i: 2
        i: 2
        i: 1
      }
    }
  }
}
node {
  name: "MobileNet/conv_ds_3/depthwise_conv/biases/Initializer/Const"
  op: "Const"
  attr {
    key: "_class"
    value {
      list {
        s: "loc:@MobileNet/conv_ds_3/depthwise_conv/biases"
      }
    }
  }
  attr {
    key: "dtype"
    value {
      type: DT_FLOAT
    }
  }
  attr {
    key: "value"
    value {
      tensor {
        dtype: DT_FLOAT
        tensor_shape {
          dim {
            size: 32
          }
        }
        float_val: 0.0
      }
    }
  }
}
node {
  name: "MobileNet/conv_ds_3/depthwise_conv/biases"
  op: "VariableV2"
  attr {
    key: "_class"
    value {
      list {
        s: "loc:@MobileNet/conv_ds_3/depthwise_conv/biases"
      }
    }
  }
  attr {
    key: "container"
    value {
      s: ""
    }
  }
  attr {
    key: "dtype"
    value {
      type: DT_FLOAT
    }
  }
  attr {
    key: "shape"
    value {
      shape {
        dim {
          size: 32
        }
      }
    }
  }
  attr {
    key: "shared_name"
    value {
      s: ""
    }
  }
}
node {
  name: "MobileNet/conv_ds_3/depthwise_conv/biases/Assign"
  op: "Assign"
  input: "MobileNet/conv_ds_3/depthwise_conv/biases"
  input: "MobileNet/conv_ds_3/depthwise_conv/biases/Initializer/Const"
  attr {
    key: "T"
    value {
      type: DT_FLOAT
    }
  }
  attr {
    key: "_class"
    value {
      list {
        s: "loc:@MobileNet/conv_ds_3/depthwise_conv/biases"
      }
    }
  }
  attr {
    key: "use_locking"
    value {
      b: true
    }
  }
  attr {
    key: "validate_shape"
    value {
      b: true
    }
  }
}
node {
  name: "MobileNet/conv_ds_3/depthwise_conv/biases/read"
  op: "Identity"
  input: "MobileNet/conv_ds_3/depthwise_conv/biases"
  attr {
    key: "T"
    value {
      type: DT_FLOAT
    }
  }
  attr {
    key: "_class"
    value {
      list {
        s: "loc:@MobileNet/conv_ds_3/depthwise_conv/biases"
      }
    }
  }
}
node {
  name: "evaluation_360x640/MobileNet/conv_ds_3/depthwise_conv/BiasAdd"
  op: "BiasAdd"
  input: "evaluation_360x640/MobileNet/conv_ds_3/depthwise_conv/depthwise"
  input: "MobileNet/conv_ds_3/depthwise_conv/biases/read"
  attr {
    key: "T"
    value {
      type: DT_FLOAT
    }
  }
  attr {
    key: "data_format"
    value {
      s: "NHWC"
    }
  }
}
node {
  name: "MobileNet/conv_ds_3/dw_batch_norm/beta/Initializer/Const"
  op: "Const"
  attr {
    key: "_class"
    value {
      list {
        s: "loc:@MobileNet/conv_ds_3/dw_batch_norm/beta"
      }
    }
  }
  attr {
    key: "dtype"
    value {
      type: DT_FLOAT
    }
  }
  attr {
    key: "value"
    value {
      tensor {
        dtype: DT_FLOAT
        tensor_shape {
          dim {
            size: 32
          }
        }
        float_val: 0.0
      }
    }
  }
}
node {
  name: "MobileNet/conv_ds_3/dw_batch_norm/beta"
  op: "VariableV2"
  attr {
    key: "_class"
    value {
      list {
        s: "loc:@MobileNet/conv_ds_3/dw_batch_norm/beta"
      }
    }
  }
  attr {
    key: "container"
    value {
      s: ""
    }
  }
  attr {
    key: "dtype"
    value {
      type: DT_FLOAT
    }
  }
  attr {
    key: "shape"
    value {
      shape {
        dim {
          size: 32
        }
      }
    }
  }
  attr {
    key: "shared_name"
    value {
      s: ""
    }
  }
}
node {
  name: "MobileNet/conv_ds_3/dw_batch_norm/beta/Assign"
  op: "Assign"
  input: "MobileNet/conv_ds_3/dw_batch_norm/beta"
  input: "MobileNet/conv_ds_3/dw_batch_norm/beta/Initializer/Const"
  attr {
    key: "T"
    value {
      type: DT_FLOAT
    }
  }
  attr {
    key: "_class"
    value {
      list {
        s: "loc:@MobileNet/conv_ds_3/dw_batch_norm/beta"
      }
    }
  }
  attr {
    key: "use_locking"
    value {
      b: true
    }
  }
  attr {
    key: "validate_shape"
    value {
      b: true
    }
  }
}
node {
  name: "MobileNet/conv_ds_3/dw_batch_norm/beta/read"
  op: "Identity"
  input: "MobileNet/conv_ds_3/dw_batch_norm/beta"
  attr {
    key: "T"
    value {
      type: DT_FLOAT
    }
  }
  attr {
    key: "_class"
    value {
      list {
        s: "loc:@MobileNet/conv_ds_3/dw_batch_norm/beta"
      }
    }
  }
}
node {
  name: "MobileNet/conv_ds_3/dw_batch_norm/gamma/Initializer/Const"
  op: "Const"
  attr {
    key: "_class"
    value {
      list {
        s: "loc:@MobileNet/conv_ds_3/dw_batch_norm/gamma"
      }
    }
  }
  attr {
    key: "dtype"
    value {
      type: DT_FLOAT
    }
  }
  attr {
    key: "value"
    value {
      tensor {
        dtype: DT_FLOAT
        tensor_shape {
          dim {
            size: 32
          }
        }
        float_val: 1.0
      }
    }
  }
}
node {
  name: "MobileNet/conv_ds_3/dw_batch_norm/gamma"
  op: "VariableV2"
  attr {
    key: "_class"
    value {
      list {
        s: "loc:@MobileNet/conv_ds_3/dw_batch_norm/gamma"
      }
    }
  }
  attr {
    key: "container"
    value {
      s: ""
    }
  }
  attr {
    key: "dtype"
    value {
      type: DT_FLOAT
    }
  }
  attr {
    key: "shape"
    value {
      shape {
        dim {
          size: 32
        }
      }
    }
  }
  attr {
    key: "shared_name"
    value {
      s: ""
    }
  }
}
node {
  name: "MobileNet/conv_ds_3/dw_batch_norm/gamma/Assign"
  op: "Assign"
  input: "MobileNet/conv_ds_3/dw_batch_norm/gamma"
  input: "MobileNet/conv_ds_3/dw_batch_norm/gamma/Initializer/Const"
  attr {
    key: "T"
    value {
      type: DT_FLOAT
    }
  }
  attr {
    key: "_class"
    value {
      list {
        s: "loc:@MobileNet/conv_ds_3/dw_batch_norm/gamma"
      }
    }
  }
  attr {
    key: "use_locking"
    value {
      b: true
    }
  }
  attr {
    key: "validate_shape"
    value {
      b: true
    }
  }
}
node {
  name: "MobileNet/conv_ds_3/dw_batch_norm/gamma/read"
  op: "Identity"
  input: "MobileNet/conv_ds_3/dw_batch_norm/gamma"
  attr {
    key: "T"
    value {
      type: DT_FLOAT
    }
  }
  attr {
    key: "_class"
    value {
      list {
        s: "loc:@MobileNet/conv_ds_3/dw_batch_norm/gamma"
      }
    }
  }
}
node {
  name: "MobileNet/conv_ds_3/dw_batch_norm/moving_mean/Initializer/Const"
  op: "Const"
  attr {
    key: "_class"
    value {
      list {
        s: "loc:@MobileNet/conv_ds_3/dw_batch_norm/moving_mean"
      }
    }
  }
  attr {
    key: "dtype"
    value {
      type: DT_FLOAT
    }
  }
  attr {
    key: "value"
    value {
      tensor {
        dtype: DT_FLOAT
        tensor_shape {
          dim {
            size: 32
          }
        }
        float_val: 0.0
      }
    }
  }
}
node {
  name: "MobileNet/conv_ds_3/dw_batch_norm/moving_mean"
  op: "VariableV2"
  attr {
    key: "_class"
    value {
      list {
        s: "loc:@MobileNet/conv_ds_3/dw_batch_norm/moving_mean"
      }
    }
  }
  attr {
    key: "container"
    value {
      s: ""
    }
  }
  attr {
    key: "dtype"
    value {
      type: DT_FLOAT
    }
  }
  attr {
    key: "shape"
    value {
      shape {
        dim {
          size: 32
        }
      }
    }
  }
  attr {
    key: "shared_name"
    value {
      s: ""
    }
  }
}
node {
  name: "MobileNet/conv_ds_3/dw_batch_norm/moving_mean/Assign"
  op: "Assign"
  input: "MobileNet/conv_ds_3/dw_batch_norm/moving_mean"
  input: "MobileNet/conv_ds_3/dw_batch_norm/moving_mean/Initializer/Const"
  attr {
    key: "T"
    value {
      type: DT_FLOAT
    }
  }
  attr {
    key: "_class"
    value {
      list {
        s: "loc:@MobileNet/conv_ds_3/dw_batch_norm/moving_mean"
      }
    }
  }
  attr {
    key: "use_locking"
    value {
      b: true
    }
  }
  attr {
    key: "validate_shape"
    value {
      b: true
    }
  }
}
node {
  name: "MobileNet/conv_ds_3/dw_batch_norm/moving_mean/read"
  op: "Identity"
  input: "MobileNet/conv_ds_3/dw_batch_norm/moving_mean"
  attr {
    key: "T"
    value {
      type: DT_FLOAT
    }
  }
  attr {
    key: "_class"
    value {
      list {
        s: "loc:@MobileNet/conv_ds_3/dw_batch_norm/moving_mean"
      }
    }
  }
}
node {
  name: "MobileNet/conv_ds_3/dw_batch_norm/moving_variance/Initializer/Const"
  op: "Const"
  attr {
    key: "_class"
    value {
      list {
        s: "loc:@MobileNet/conv_ds_3/dw_batch_norm/moving_variance"
      }
    }
  }
  attr {
    key: "dtype"
    value {
      type: DT_FLOAT
    }
  }
  attr {
    key: "value"
    value {
      tensor {
        dtype: DT_FLOAT
        tensor_shape {
          dim {
            size: 32
          }
        }
        float_val: 1.0
      }
    }
  }
}
node {
  name: "MobileNet/conv_ds_3/dw_batch_norm/moving_variance"
  op: "VariableV2"
  attr {
    key: "_class"
    value {
      list {
        s: "loc:@MobileNet/conv_ds_3/dw_batch_norm/moving_variance"
      }
    }
  }
  attr {
    key: "container"
    value {
      s: ""
    }
  }
  attr {
    key: "dtype"
    value {
      type: DT_FLOAT
    }
  }
  attr {
    key: "shape"
    value {
      shape {
        dim {
          size: 32
        }
      }
    }
  }
  attr {
    key: "shared_name"
    value {
      s: ""
    }
  }
}
node {
  name: "MobileNet/conv_ds_3/dw_batch_norm/moving_variance/Assign"
  op: "Assign"
  input: "MobileNet/conv_ds_3/dw_batch_norm/moving_variance"
  input: "MobileNet/conv_ds_3/dw_batch_norm/moving_variance/Initializer/Const"
  attr {
    key: "T"
    value {
      type: DT_FLOAT
    }
  }
  attr {
    key: "_class"
    value {
      list {
        s: "loc:@MobileNet/conv_ds_3/dw_batch_norm/moving_variance"
      }
    }
  }
  attr {
    key: "use_locking"
    value {
      b: true
    }
  }
  attr {
    key: "validate_shape"
    value {
      b: true
    }
  }
}
node {
  name: "MobileNet/conv_ds_3/dw_batch_norm/moving_variance/read"
  op: "Identity"
  input: "MobileNet/conv_ds_3/dw_batch_norm/moving_variance"
  attr {
    key: "T"
    value {
      type: DT_FLOAT
    }
  }
  attr {
    key: "_class"
    value {
      list {
        s: "loc:@MobileNet/conv_ds_3/dw_batch_norm/moving_variance"
      }
    }
  }
}
node {
  name: "evaluation_360x640/MobileNet/conv_ds_3/dw_batch_norm/FusedBatchNorm"
  op: "FusedBatchNorm"
  input: "evaluation_360x640/MobileNet/conv_ds_3/depthwise_conv/BiasAdd"
  input: "MobileNet/conv_ds_3/dw_batch_norm/gamma/read"
  input: "MobileNet/conv_ds_3/dw_batch_norm/beta/read"
  input: "MobileNet/conv_ds_3/dw_batch_norm/moving_mean/read"
  input: "MobileNet/conv_ds_3/dw_batch_norm/moving_variance/read"
  attr {
    key: "T"
    value {
      type: DT_FLOAT
    }
  }
  attr {
    key: "data_format"
    value {
      s: "NHWC"
    }
  }
  attr {
    key: "epsilon"
    value {
      f: 0.0010000000474974513
    }
  }
  attr {
    key: "is_training"
    value {
      b: false
    }
  }
}
node {
  name: "evaluation_360x640/MobileNet/conv_ds_3/dw_batch_norm/Relu"
  op: "Relu"
  input: "evaluation_360x640/MobileNet/conv_ds_3/dw_batch_norm/FusedBatchNorm"
  attr {
    key: "T"
    value {
      type: DT_FLOAT
    }
  }
}
node {
  name: "MobileNet/conv_ds_3/pointwise_conv/weights/Initializer/random_uniform/shape"
  op: "Const"
  attr {
    key: "_class"
    value {
      list {
        s: "loc:@MobileNet/conv_ds_3/pointwise_conv/weights"
      }
    }
  }
  attr {
    key: "dtype"
    value {
      type: DT_INT32
    }
  }
  attr {
    key: "value"
    value {
      tensor {
        dtype: DT_INT32
        tensor_shape {
          dim {
            size: 4
          }
        }
        tensor_content: "\001\000\000\000\001\000\000\000 \000\000\000@\000\000\000"
      }
    }
  }
}
node {
  name: "MobileNet/conv_ds_3/pointwise_conv/weights/Initializer/random_uniform/min"
  op: "Const"
  attr {
    key: "_class"
    value {
      list {
        s: "loc:@MobileNet/conv_ds_3/pointwise_conv/weights"
      }
    }
  }
  attr {
    key: "dtype"
    value {
      type: DT_FLOAT
    }
  }
  attr {
    key: "value"
    value {
      tensor {
        dtype: DT_FLOAT
        tensor_shape {
        }
        float_val: -0.25
      }
    }
  }
}
node {
  name: "MobileNet/conv_ds_3/pointwise_conv/weights/Initializer/random_uniform/max"
  op: "Const"
  attr {
    key: "_class"
    value {
      list {
        s: "loc:@MobileNet/conv_ds_3/pointwise_conv/weights"
      }
    }
  }
  attr {
    key: "dtype"
    value {
      type: DT_FLOAT
    }
  }
  attr {
    key: "value"
    value {
      tensor {
        dtype: DT_FLOAT
        tensor_shape {
        }
        float_val: 0.25
      }
    }
  }
}
node {
  name: "MobileNet/conv_ds_3/pointwise_conv/weights/Initializer/random_uniform/RandomUniform"
  op: "RandomUniform"
  input: "MobileNet/conv_ds_3/pointwise_conv/weights/Initializer/random_uniform/shape"
  attr {
    key: "T"
    value {
      type: DT_INT32
    }
  }
  attr {
    key: "_class"
    value {
      list {
        s: "loc:@MobileNet/conv_ds_3/pointwise_conv/weights"
      }
    }
  }
  attr {
    key: "dtype"
    value {
      type: DT_FLOAT
    }
  }
  attr {
    key: "seed"
    value {
      i: 0
    }
  }
  attr {
    key: "seed2"
    value {
      i: 0
    }
  }
}
node {
  name: "MobileNet/conv_ds_3/pointwise_conv/weights/Initializer/random_uniform/sub"
  op: "Sub"
  input: "MobileNet/conv_ds_3/pointwise_conv/weights/Initializer/random_uniform/max"
  input: "MobileNet/conv_ds_3/pointwise_conv/weights/Initializer/random_uniform/min"
  attr {
    key: "T"
    value {
      type: DT_FLOAT
    }
  }
  attr {
    key: "_class"
    value {
      list {
        s: "loc:@MobileNet/conv_ds_3/pointwise_conv/weights"
      }
    }
  }
}
node {
  name: "MobileNet/conv_ds_3/pointwise_conv/weights/Initializer/random_uniform/mul"
  op: "Mul"
  input: "MobileNet/conv_ds_3/pointwise_conv/weights/Initializer/random_uniform/RandomUniform"
  input: "MobileNet/conv_ds_3/pointwise_conv/weights/Initializer/random_uniform/sub"
  attr {
    key: "T"
    value {
      type: DT_FLOAT
    }
  }
  attr {
    key: "_class"
    value {
      list {
        s: "loc:@MobileNet/conv_ds_3/pointwise_conv/weights"
      }
    }
  }
}
node {
  name: "MobileNet/conv_ds_3/pointwise_conv/weights/Initializer/random_uniform"
  op: "Add"
  input: "MobileNet/conv_ds_3/pointwise_conv/weights/Initializer/random_uniform/mul"
  input: "MobileNet/conv_ds_3/pointwise_conv/weights/Initializer/random_uniform/min"
  attr {
    key: "T"
    value {
      type: DT_FLOAT
    }
  }
  attr {
    key: "_class"
    value {
      list {
        s: "loc:@MobileNet/conv_ds_3/pointwise_conv/weights"
      }
    }
  }
}
node {
  name: "MobileNet/conv_ds_3/pointwise_conv/weights"
  op: "VariableV2"
  attr {
    key: "_class"
    value {
      list {
        s: "loc:@MobileNet/conv_ds_3/pointwise_conv/weights"
      }
    }
  }
  attr {
    key: "container"
    value {
      s: ""
    }
  }
  attr {
    key: "dtype"
    value {
      type: DT_FLOAT
    }
  }
  attr {
    key: "shape"
    value {
      shape {
        dim {
          size: 1
        }
        dim {
          size: 1
        }
        dim {
          size: 32
        }
        dim {
          size: 64
        }
      }
    }
  }
  attr {
    key: "shared_name"
    value {
      s: ""
    }
  }
}
node {
  name: "MobileNet/conv_ds_3/pointwise_conv/weights/Assign"
  op: "Assign"
  input: "MobileNet/conv_ds_3/pointwise_conv/weights"
  input: "MobileNet/conv_ds_3/pointwise_conv/weights/Initializer/random_uniform"
  attr {
    key: "T"
    value {
      type: DT_FLOAT
    }
  }
  attr {
    key: "_class"
    value {
      list {
        s: "loc:@MobileNet/conv_ds_3/pointwise_conv/weights"
      }
    }
  }
  attr {
    key: "use_locking"
    value {
      b: true
    }
  }
  attr {
    key: "validate_shape"
    value {
      b: true
    }
  }
}
node {
  name: "MobileNet/conv_ds_3/pointwise_conv/weights/read"
  op: "Identity"
  input: "MobileNet/conv_ds_3/pointwise_conv/weights"
  attr {
    key: "T"
    value {
      type: DT_FLOAT
    }
  }
  attr {
    key: "_class"
    value {
      list {
        s: "loc:@MobileNet/conv_ds_3/pointwise_conv/weights"
      }
    }
  }
}
node {
  name: "MobileNet/conv_ds_3/pointwise_conv/kernel/Regularizer/l2_regularizer/scale"
  op: "Const"
  attr {
    key: "_class"
    value {
      list {
        s: "loc:@MobileNet/conv_ds_3/pointwise_conv/weights"
      }
    }
  }
  attr {
    key: "dtype"
    value {
      type: DT_FLOAT
    }
  }
  attr {
    key: "value"
    value {
      tensor {
        dtype: DT_FLOAT
        tensor_shape {
        }
        float_val: 0.0005000000237487257
      }
    }
  }
}
node {
  name: "MobileNet/conv_ds_3/pointwise_conv/kernel/Regularizer/l2_regularizer/L2Loss"
  op: "L2Loss"
  input: "MobileNet/conv_ds_3/pointwise_conv/weights/read"
  attr {
    key: "T"
    value {
      type: DT_FLOAT
    }
  }
  attr {
    key: "_class"
    value {
      list {
        s: "loc:@MobileNet/conv_ds_3/pointwise_conv/weights"
      }
    }
  }
}
node {
  name: "MobileNet/conv_ds_3/pointwise_conv/kernel/Regularizer/l2_regularizer"
  op: "Mul"
  input: "MobileNet/conv_ds_3/pointwise_conv/kernel/Regularizer/l2_regularizer/scale"
  input: "MobileNet/conv_ds_3/pointwise_conv/kernel/Regularizer/l2_regularizer/L2Loss"
  attr {
    key: "T"
    value {
      type: DT_FLOAT
    }
  }
  attr {
    key: "_class"
    value {
      list {
        s: "loc:@MobileNet/conv_ds_3/pointwise_conv/weights"
      }
    }
  }
}
node {
  name: "MobileNet/conv_ds_3/pointwise_conv/biases/Initializer/Const"
  op: "Const"
  attr {
    key: "_class"
    value {
      list {
        s: "loc:@MobileNet/conv_ds_3/pointwise_conv/biases"
      }
    }
  }
  attr {
    key: "dtype"
    value {
      type: DT_FLOAT
    }
  }
  attr {
    key: "value"
    value {
      tensor {
        dtype: DT_FLOAT
        tensor_shape {
          dim {
            size: 64
          }
        }
        float_val: 0.0
      }
    }
  }
}
node {
  name: "MobileNet/conv_ds_3/pointwise_conv/biases"
  op: "VariableV2"
  attr {
    key: "_class"
    value {
      list {
        s: "loc:@MobileNet/conv_ds_3/pointwise_conv/biases"
      }
    }
  }
  attr {
    key: "container"
    value {
      s: ""
    }
  }
  attr {
    key: "dtype"
    value {
      type: DT_FLOAT
    }
  }
  attr {
    key: "shape"
    value {
      shape {
        dim {
          size: 64
        }
      }
    }
  }
  attr {
    key: "shared_name"
    value {
      s: ""
    }
  }
}
node {
  name: "MobileNet/conv_ds_3/pointwise_conv/biases/Assign"
  op: "Assign"
  input: "MobileNet/conv_ds_3/pointwise_conv/biases"
  input: "MobileNet/conv_ds_3/pointwise_conv/biases/Initializer/Const"
  attr {
    key: "T"
    value {
      type: DT_FLOAT
    }
  }
  attr {
    key: "_class"
    value {
      list {
        s: "loc:@MobileNet/conv_ds_3/pointwise_conv/biases"
      }
    }
  }
  attr {
    key: "use_locking"
    value {
      b: true
    }
  }
  attr {
    key: "validate_shape"
    value {
      b: true
    }
  }
}
node {
  name: "MobileNet/conv_ds_3/pointwise_conv/biases/read"
  op: "Identity"
  input: "MobileNet/conv_ds_3/pointwise_conv/biases"
  attr {
    key: "T"
    value {
      type: DT_FLOAT
    }
  }
  attr {
    key: "_class"
    value {
      list {
        s: "loc:@MobileNet/conv_ds_3/pointwise_conv/biases"
      }
    }
  }
}
node {
  name: "evaluation_360x640/MobileNet/conv_ds_3/pointwise_conv/convolution/Shape"
  op: "Const"
  attr {
    key: "dtype"
    value {
      type: DT_INT32
    }
  }
  attr {
    key: "value"
    value {
      tensor {
        dtype: DT_INT32
        tensor_shape {
          dim {
            size: 4
          }
        }
        tensor_content: "\001\000\000\000\001\000\000\000 \000\000\000@\000\000\000"
      }
    }
  }
}
node {
  name: "evaluation_360x640/MobileNet/conv_ds_3/pointwise_conv/convolution/dilation_rate"
  op: "Const"
  attr {
    key: "dtype"
    value {
      type: DT_INT32
    }
  }
  attr {
    key: "value"
    value {
      tensor {
        dtype: DT_INT32
        tensor_shape {
          dim {
            size: 2
          }
        }
        tensor_content: "\001\000\000\000\001\000\000\000"
      }
    }
  }
}
node {
  name: "evaluation_360x640/MobileNet/conv_ds_3/pointwise_conv/convolution"
  op: "Conv2D"
  input: "evaluation_360x640/MobileNet/conv_ds_3/dw_batch_norm/Relu"
  input: "MobileNet/conv_ds_3/pointwise_conv/weights/read"
  attr {
    key: "T"
    value {
      type: DT_FLOAT
    }
  }
  attr {
    key: "data_format"
    value {
      s: "NHWC"
    }
  }
  attr {
    key: "padding"
    value {
      s: "SAME"
    }
  }
  attr {
    key: "strides"
    value {
      list {
        i: 1
        i: 1
        i: 1
        i: 1
      }
    }
  }
  attr {
    key: "use_cudnn_on_gpu"
    value {
      b: true
    }
  }
}
node {
  name: "evaluation_360x640/MobileNet/conv_ds_3/pointwise_conv/BiasAdd"
  op: "BiasAdd"
  input: "evaluation_360x640/MobileNet/conv_ds_3/pointwise_conv/convolution"
  input: "MobileNet/conv_ds_3/pointwise_conv/biases/read"
  attr {
    key: "T"
    value {
      type: DT_FLOAT
    }
  }
  attr {
    key: "data_format"
    value {
      s: "NHWC"
    }
  }
}
node {
  name: "MobileNet/conv_ds_3/pw_batch_norm/beta/Initializer/Const"
  op: "Const"
  attr {
    key: "_class"
    value {
      list {
        s: "loc:@MobileNet/conv_ds_3/pw_batch_norm/beta"
      }
    }
  }
  attr {
    key: "dtype"
    value {
      type: DT_FLOAT
    }
  }
  attr {
    key: "value"
    value {
      tensor {
        dtype: DT_FLOAT
        tensor_shape {
          dim {
            size: 64
          }
        }
        float_val: 0.0
      }
    }
  }
}
node {
  name: "MobileNet/conv_ds_3/pw_batch_norm/beta"
  op: "VariableV2"
  attr {
    key: "_class"
    value {
      list {
        s: "loc:@MobileNet/conv_ds_3/pw_batch_norm/beta"
      }
    }
  }
  attr {
    key: "container"
    value {
      s: ""
    }
  }
  attr {
    key: "dtype"
    value {
      type: DT_FLOAT
    }
  }
  attr {
    key: "shape"
    value {
      shape {
        dim {
          size: 64
        }
      }
    }
  }
  attr {
    key: "shared_name"
    value {
      s: ""
    }
  }
}
node {
  name: "MobileNet/conv_ds_3/pw_batch_norm/beta/Assign"
  op: "Assign"
  input: "MobileNet/conv_ds_3/pw_batch_norm/beta"
  input: "MobileNet/conv_ds_3/pw_batch_norm/beta/Initializer/Const"
  attr {
    key: "T"
    value {
      type: DT_FLOAT
    }
  }
  attr {
    key: "_class"
    value {
      list {
        s: "loc:@MobileNet/conv_ds_3/pw_batch_norm/beta"
      }
    }
  }
  attr {
    key: "use_locking"
    value {
      b: true
    }
  }
  attr {
    key: "validate_shape"
    value {
      b: true
    }
  }
}
node {
  name: "MobileNet/conv_ds_3/pw_batch_norm/beta/read"
  op: "Identity"
  input: "MobileNet/conv_ds_3/pw_batch_norm/beta"
  attr {
    key: "T"
    value {
      type: DT_FLOAT
    }
  }
  attr {
    key: "_class"
    value {
      list {
        s: "loc:@MobileNet/conv_ds_3/pw_batch_norm/beta"
      }
    }
  }
}
node {
  name: "MobileNet/conv_ds_3/pw_batch_norm/gamma/Initializer/Const"
  op: "Const"
  attr {
    key: "_class"
    value {
      list {
        s: "loc:@MobileNet/conv_ds_3/pw_batch_norm/gamma"
      }
    }
  }
  attr {
    key: "dtype"
    value {
      type: DT_FLOAT
    }
  }
  attr {
    key: "value"
    value {
      tensor {
        dtype: DT_FLOAT
        tensor_shape {
          dim {
            size: 64
          }
        }
        float_val: 1.0
      }
    }
  }
}
node {
  name: "MobileNet/conv_ds_3/pw_batch_norm/gamma"
  op: "VariableV2"
  attr {
    key: "_class"
    value {
      list {
        s: "loc:@MobileNet/conv_ds_3/pw_batch_norm/gamma"
      }
    }
  }
  attr {
    key: "container"
    value {
      s: ""
    }
  }
  attr {
    key: "dtype"
    value {
      type: DT_FLOAT
    }
  }
  attr {
    key: "shape"
    value {
      shape {
        dim {
          size: 64
        }
      }
    }
  }
  attr {
    key: "shared_name"
    value {
      s: ""
    }
  }
}
node {
  name: "MobileNet/conv_ds_3/pw_batch_norm/gamma/Assign"
  op: "Assign"
  input: "MobileNet/conv_ds_3/pw_batch_norm/gamma"
  input: "MobileNet/conv_ds_3/pw_batch_norm/gamma/Initializer/Const"
  attr {
    key: "T"
    value {
      type: DT_FLOAT
    }
  }
  attr {
    key: "_class"
    value {
      list {
        s: "loc:@MobileNet/conv_ds_3/pw_batch_norm/gamma"
      }
    }
  }
  attr {
    key: "use_locking"
    value {
      b: true
    }
  }
  attr {
    key: "validate_shape"
    value {
      b: true
    }
  }
}
node {
  name: "MobileNet/conv_ds_3/pw_batch_norm/gamma/read"
  op: "Identity"
  input: "MobileNet/conv_ds_3/pw_batch_norm/gamma"
  attr {
    key: "T"
    value {
      type: DT_FLOAT
    }
  }
  attr {
    key: "_class"
    value {
      list {
        s: "loc:@MobileNet/conv_ds_3/pw_batch_norm/gamma"
      }
    }
  }
}
node {
  name: "MobileNet/conv_ds_3/pw_batch_norm/moving_mean/Initializer/Const"
  op: "Const"
  attr {
    key: "_class"
    value {
      list {
        s: "loc:@MobileNet/conv_ds_3/pw_batch_norm/moving_mean"
      }
    }
  }
  attr {
    key: "dtype"
    value {
      type: DT_FLOAT
    }
  }
  attr {
    key: "value"
    value {
      tensor {
        dtype: DT_FLOAT
        tensor_shape {
          dim {
            size: 64
          }
        }
        float_val: 0.0
      }
    }
  }
}
node {
  name: "MobileNet/conv_ds_3/pw_batch_norm/moving_mean"
  op: "VariableV2"
  attr {
    key: "_class"
    value {
      list {
        s: "loc:@MobileNet/conv_ds_3/pw_batch_norm/moving_mean"
      }
    }
  }
  attr {
    key: "container"
    value {
      s: ""
    }
  }
  attr {
    key: "dtype"
    value {
      type: DT_FLOAT
    }
  }
  attr {
    key: "shape"
    value {
      shape {
        dim {
          size: 64
        }
      }
    }
  }
  attr {
    key: "shared_name"
    value {
      s: ""
    }
  }
}
node {
  name: "MobileNet/conv_ds_3/pw_batch_norm/moving_mean/Assign"
  op: "Assign"
  input: "MobileNet/conv_ds_3/pw_batch_norm/moving_mean"
  input: "MobileNet/conv_ds_3/pw_batch_norm/moving_mean/Initializer/Const"
  attr {
    key: "T"
    value {
      type: DT_FLOAT
    }
  }
  attr {
    key: "_class"
    value {
      list {
        s: "loc:@MobileNet/conv_ds_3/pw_batch_norm/moving_mean"
      }
    }
  }
  attr {
    key: "use_locking"
    value {
      b: true
    }
  }
  attr {
    key: "validate_shape"
    value {
      b: true
    }
  }
}
node {
  name: "MobileNet/conv_ds_3/pw_batch_norm/moving_mean/read"
  op: "Identity"
  input: "MobileNet/conv_ds_3/pw_batch_norm/moving_mean"
  attr {
    key: "T"
    value {
      type: DT_FLOAT
    }
  }
  attr {
    key: "_class"
    value {
      list {
        s: "loc:@MobileNet/conv_ds_3/pw_batch_norm/moving_mean"
      }
    }
  }
}
node {
  name: "MobileNet/conv_ds_3/pw_batch_norm/moving_variance/Initializer/Const"
  op: "Const"
  attr {
    key: "_class"
    value {
      list {
        s: "loc:@MobileNet/conv_ds_3/pw_batch_norm/moving_variance"
      }
    }
  }
  attr {
    key: "dtype"
    value {
      type: DT_FLOAT
    }
  }
  attr {
    key: "value"
    value {
      tensor {
        dtype: DT_FLOAT
        tensor_shape {
          dim {
            size: 64
          }
        }
        float_val: 1.0
      }
    }
  }
}
node {
  name: "MobileNet/conv_ds_3/pw_batch_norm/moving_variance"
  op: "VariableV2"
  attr {
    key: "_class"
    value {
      list {
        s: "loc:@MobileNet/conv_ds_3/pw_batch_norm/moving_variance"
      }
    }
  }
  attr {
    key: "container"
    value {
      s: ""
    }
  }
  attr {
    key: "dtype"
    value {
      type: DT_FLOAT
    }
  }
  attr {
    key: "shape"
    value {
      shape {
        dim {
          size: 64
        }
      }
    }
  }
  attr {
    key: "shared_name"
    value {
      s: ""
    }
  }
}
node {
  name: "MobileNet/conv_ds_3/pw_batch_norm/moving_variance/Assign"
  op: "Assign"
  input: "MobileNet/conv_ds_3/pw_batch_norm/moving_variance"
  input: "MobileNet/conv_ds_3/pw_batch_norm/moving_variance/Initializer/Const"
  attr {
    key: "T"
    value {
      type: DT_FLOAT
    }
  }
  attr {
    key: "_class"
    value {
      list {
        s: "loc:@MobileNet/conv_ds_3/pw_batch_norm/moving_variance"
      }
    }
  }
  attr {
    key: "use_locking"
    value {
      b: true
    }
  }
  attr {
    key: "validate_shape"
    value {
      b: true
    }
  }
}
node {
  name: "MobileNet/conv_ds_3/pw_batch_norm/moving_variance/read"
  op: "Identity"
  input: "MobileNet/conv_ds_3/pw_batch_norm/moving_variance"
  attr {
    key: "T"
    value {
      type: DT_FLOAT
    }
  }
  attr {
    key: "_class"
    value {
      list {
        s: "loc:@MobileNet/conv_ds_3/pw_batch_norm/moving_variance"
      }
    }
  }
}
node {
  name: "evaluation_360x640/MobileNet/conv_ds_3/pw_batch_norm/FusedBatchNorm"
  op: "FusedBatchNorm"
  input: "evaluation_360x640/MobileNet/conv_ds_3/pointwise_conv/BiasAdd"
  input: "MobileNet/conv_ds_3/pw_batch_norm/gamma/read"
  input: "MobileNet/conv_ds_3/pw_batch_norm/beta/read"
  input: "MobileNet/conv_ds_3/pw_batch_norm/moving_mean/read"
  input: "MobileNet/conv_ds_3/pw_batch_norm/moving_variance/read"
  attr {
    key: "T"
    value {
      type: DT_FLOAT
    }
  }
  attr {
    key: "data_format"
    value {
      s: "NHWC"
    }
  }
  attr {
    key: "epsilon"
    value {
      f: 0.0010000000474974513
    }
  }
  attr {
    key: "is_training"
    value {
      b: false
    }
  }
}
node {
  name: "evaluation_360x640/MobileNet/conv_ds_3/pw_batch_norm/Relu"
  op: "Relu"
  input: "evaluation_360x640/MobileNet/conv_ds_3/pw_batch_norm/FusedBatchNorm"
  attr {
    key: "T"
    value {
      type: DT_FLOAT
    }
  }
}
node {
  name: "MobileNet/conv_ds_4/depthwise_conv/depthwise_weights/Initializer/random_uniform/shape"
  op: "Const"
  attr {
    key: "_class"
    value {
      list {
        s: "loc:@MobileNet/conv_ds_4/depthwise_conv/depthwise_weights"
      }
    }
  }
  attr {
    key: "dtype"
    value {
      type: DT_INT32
    }
  }
  attr {
    key: "value"
    value {
      tensor {
        dtype: DT_INT32
        tensor_shape {
          dim {
            size: 4
          }
        }
        tensor_content: "\003\000\000\000\003\000\000\000@\000\000\000\001\000\000\000"
      }
    }
  }
}
node {
  name: "MobileNet/conv_ds_4/depthwise_conv/depthwise_weights/Initializer/random_uniform/min"
  op: "Const"
  attr {
    key: "_class"
    value {
      list {
        s: "loc:@MobileNet/conv_ds_4/depthwise_conv/depthwise_weights"
      }
    }
  }
  attr {
    key: "dtype"
    value {
      type: DT_FLOAT
    }
  }
  attr {
    key: "value"
    value {
      tensor {
        dtype: DT_FLOAT
        tensor_shape {
        }
        float_val: -0.10127393901348114
      }
    }
  }
}
node {
  name: "MobileNet/conv_ds_4/depthwise_conv/depthwise_weights/Initializer/random_uniform/max"
  op: "Const"
  attr {
    key: "_class"
    value {
      list {
        s: "loc:@MobileNet/conv_ds_4/depthwise_conv/depthwise_weights"
      }
    }
  }
  attr {
    key: "dtype"
    value {
      type: DT_FLOAT
    }
  }
  attr {
    key: "value"
    value {
      tensor {
        dtype: DT_FLOAT
        tensor_shape {
        }
        float_val: 0.10127393901348114
      }
    }
  }
}
node {
  name: "MobileNet/conv_ds_4/depthwise_conv/depthwise_weights/Initializer/random_uniform/RandomUniform"
  op: "RandomUniform"
  input: "MobileNet/conv_ds_4/depthwise_conv/depthwise_weights/Initializer/random_uniform/shape"
  attr {
    key: "T"
    value {
      type: DT_INT32
    }
  }
  attr {
    key: "_class"
    value {
      list {
        s: "loc:@MobileNet/conv_ds_4/depthwise_conv/depthwise_weights"
      }
    }
  }
  attr {
    key: "dtype"
    value {
      type: DT_FLOAT
    }
  }
  attr {
    key: "seed"
    value {
      i: 0
    }
  }
  attr {
    key: "seed2"
    value {
      i: 0
    }
  }
}
node {
  name: "MobileNet/conv_ds_4/depthwise_conv/depthwise_weights/Initializer/random_uniform/sub"
  op: "Sub"
  input: "MobileNet/conv_ds_4/depthwise_conv/depthwise_weights/Initializer/random_uniform/max"
  input: "MobileNet/conv_ds_4/depthwise_conv/depthwise_weights/Initializer/random_uniform/min"
  attr {
    key: "T"
    value {
      type: DT_FLOAT
    }
  }
  attr {
    key: "_class"
    value {
      list {
        s: "loc:@MobileNet/conv_ds_4/depthwise_conv/depthwise_weights"
      }
    }
  }
}
node {
  name: "MobileNet/conv_ds_4/depthwise_conv/depthwise_weights/Initializer/random_uniform/mul"
  op: "Mul"
  input: "MobileNet/conv_ds_4/depthwise_conv/depthwise_weights/Initializer/random_uniform/RandomUniform"
  input: "MobileNet/conv_ds_4/depthwise_conv/depthwise_weights/Initializer/random_uniform/sub"
  attr {
    key: "T"
    value {
      type: DT_FLOAT
    }
  }
  attr {
    key: "_class"
    value {
      list {
        s: "loc:@MobileNet/conv_ds_4/depthwise_conv/depthwise_weights"
      }
    }
  }
}
node {
  name: "MobileNet/conv_ds_4/depthwise_conv/depthwise_weights/Initializer/random_uniform"
  op: "Add"
  input: "MobileNet/conv_ds_4/depthwise_conv/depthwise_weights/Initializer/random_uniform/mul"
  input: "MobileNet/conv_ds_4/depthwise_conv/depthwise_weights/Initializer/random_uniform/min"
  attr {
    key: "T"
    value {
      type: DT_FLOAT
    }
  }
  attr {
    key: "_class"
    value {
      list {
        s: "loc:@MobileNet/conv_ds_4/depthwise_conv/depthwise_weights"
      }
    }
  }
}
node {
  name: "MobileNet/conv_ds_4/depthwise_conv/depthwise_weights"
  op: "VariableV2"
  attr {
    key: "_class"
    value {
      list {
        s: "loc:@MobileNet/conv_ds_4/depthwise_conv/depthwise_weights"
      }
    }
  }
  attr {
    key: "container"
    value {
      s: ""
    }
  }
  attr {
    key: "dtype"
    value {
      type: DT_FLOAT
    }
  }
  attr {
    key: "shape"
    value {
      shape {
        dim {
          size: 3
        }
        dim {
          size: 3
        }
        dim {
          size: 64
        }
        dim {
          size: 1
        }
      }
    }
  }
  attr {
    key: "shared_name"
    value {
      s: ""
    }
  }
}
node {
  name: "MobileNet/conv_ds_4/depthwise_conv/depthwise_weights/Assign"
  op: "Assign"
  input: "MobileNet/conv_ds_4/depthwise_conv/depthwise_weights"
  input: "MobileNet/conv_ds_4/depthwise_conv/depthwise_weights/Initializer/random_uniform"
  attr {
    key: "T"
    value {
      type: DT_FLOAT
    }
  }
  attr {
    key: "_class"
    value {
      list {
        s: "loc:@MobileNet/conv_ds_4/depthwise_conv/depthwise_weights"
      }
    }
  }
  attr {
    key: "use_locking"
    value {
      b: true
    }
  }
  attr {
    key: "validate_shape"
    value {
      b: true
    }
  }
}
node {
  name: "MobileNet/conv_ds_4/depthwise_conv/depthwise_weights/read"
  op: "Identity"
  input: "MobileNet/conv_ds_4/depthwise_conv/depthwise_weights"
  attr {
    key: "T"
    value {
      type: DT_FLOAT
    }
  }
  attr {
    key: "_class"
    value {
      list {
        s: "loc:@MobileNet/conv_ds_4/depthwise_conv/depthwise_weights"
      }
    }
  }
}
node {
  name: "evaluation_360x640/MobileNet/conv_ds_4/depthwise_conv/depthwise/Shape"
  op: "Const"
  attr {
    key: "dtype"
    value {
      type: DT_INT32
    }
  }
  attr {
    key: "value"
    value {
      tensor {
        dtype: DT_INT32
        tensor_shape {
          dim {
            size: 4
          }
        }
        tensor_content: "\003\000\000\000\003\000\000\000@\000\000\000\001\000\000\000"
      }
    }
  }
}
node {
  name: "evaluation_360x640/MobileNet/conv_ds_4/depthwise_conv/depthwise/dilation_rate"
  op: "Const"
  attr {
    key: "dtype"
    value {
      type: DT_INT32
    }
  }
  attr {
    key: "value"
    value {
      tensor {
        dtype: DT_INT32
        tensor_shape {
          dim {
            size: 2
          }
        }
        tensor_content: "\001\000\000\000\001\000\000\000"
      }
    }
  }
}
node {
  name: "evaluation_360x640/MobileNet/conv_ds_4/depthwise_conv/depthwise"
  op: "DepthwiseConv2dNative"
  input: "evaluation_360x640/MobileNet/conv_ds_3/pw_batch_norm/Relu"
  input: "MobileNet/conv_ds_4/depthwise_conv/depthwise_weights/read"
  attr {
    key: "T"
    value {
      type: DT_FLOAT
    }
  }
  attr {
    key: "data_format"
    value {
      s: "NHWC"
    }
  }
  attr {
    key: "padding"
    value {
      s: "SAME"
    }
  }
  attr {
    key: "strides"
    value {
      list {
        i: 1
        i: 1
        i: 1
        i: 1
      }
    }
  }
}
node {
  name: "MobileNet/conv_ds_4/depthwise_conv/biases/Initializer/Const"
  op: "Const"
  attr {
    key: "_class"
    value {
      list {
        s: "loc:@MobileNet/conv_ds_4/depthwise_conv/biases"
      }
    }
  }
  attr {
    key: "dtype"
    value {
      type: DT_FLOAT
    }
  }
  attr {
    key: "value"
    value {
      tensor {
        dtype: DT_FLOAT
        tensor_shape {
          dim {
            size: 64
          }
        }
        float_val: 0.0
      }
    }
  }
}
node {
  name: "MobileNet/conv_ds_4/depthwise_conv/biases"
  op: "VariableV2"
  attr {
    key: "_class"
    value {
      list {
        s: "loc:@MobileNet/conv_ds_4/depthwise_conv/biases"
      }
    }
  }
  attr {
    key: "container"
    value {
      s: ""
    }
  }
  attr {
    key: "dtype"
    value {
      type: DT_FLOAT
    }
  }
  attr {
    key: "shape"
    value {
      shape {
        dim {
          size: 64
        }
      }
    }
  }
  attr {
    key: "shared_name"
    value {
      s: ""
    }
  }
}
node {
  name: "MobileNet/conv_ds_4/depthwise_conv/biases/Assign"
  op: "Assign"
  input: "MobileNet/conv_ds_4/depthwise_conv/biases"
  input: "MobileNet/conv_ds_4/depthwise_conv/biases/Initializer/Const"
  attr {
    key: "T"
    value {
      type: DT_FLOAT
    }
  }
  attr {
    key: "_class"
    value {
      list {
        s: "loc:@MobileNet/conv_ds_4/depthwise_conv/biases"
      }
    }
  }
  attr {
    key: "use_locking"
    value {
      b: true
    }
  }
  attr {
    key: "validate_shape"
    value {
      b: true
    }
  }
}
node {
  name: "MobileNet/conv_ds_4/depthwise_conv/biases/read"
  op: "Identity"
  input: "MobileNet/conv_ds_4/depthwise_conv/biases"
  attr {
    key: "T"
    value {
      type: DT_FLOAT
    }
  }
  attr {
    key: "_class"
    value {
      list {
        s: "loc:@MobileNet/conv_ds_4/depthwise_conv/biases"
      }
    }
  }
}
node {
  name: "evaluation_360x640/MobileNet/conv_ds_4/depthwise_conv/BiasAdd"
  op: "BiasAdd"
  input: "evaluation_360x640/MobileNet/conv_ds_4/depthwise_conv/depthwise"
  input: "MobileNet/conv_ds_4/depthwise_conv/biases/read"
  attr {
    key: "T"
    value {
      type: DT_FLOAT
    }
  }
  attr {
    key: "data_format"
    value {
      s: "NHWC"
    }
  }
}
node {
  name: "MobileNet/conv_ds_4/dw_batch_norm/beta/Initializer/Const"
  op: "Const"
  attr {
    key: "_class"
    value {
      list {
        s: "loc:@MobileNet/conv_ds_4/dw_batch_norm/beta"
      }
    }
  }
  attr {
    key: "dtype"
    value {
      type: DT_FLOAT
    }
  }
  attr {
    key: "value"
    value {
      tensor {
        dtype: DT_FLOAT
        tensor_shape {
          dim {
            size: 64
          }
        }
        float_val: 0.0
      }
    }
  }
}
node {
  name: "MobileNet/conv_ds_4/dw_batch_norm/beta"
  op: "VariableV2"
  attr {
    key: "_class"
    value {
      list {
        s: "loc:@MobileNet/conv_ds_4/dw_batch_norm/beta"
      }
    }
  }
  attr {
    key: "container"
    value {
      s: ""
    }
  }
  attr {
    key: "dtype"
    value {
      type: DT_FLOAT
    }
  }
  attr {
    key: "shape"
    value {
      shape {
        dim {
          size: 64
        }
      }
    }
  }
  attr {
    key: "shared_name"
    value {
      s: ""
    }
  }
}
node {
  name: "MobileNet/conv_ds_4/dw_batch_norm/beta/Assign"
  op: "Assign"
  input: "MobileNet/conv_ds_4/dw_batch_norm/beta"
  input: "MobileNet/conv_ds_4/dw_batch_norm/beta/Initializer/Const"
  attr {
    key: "T"
    value {
      type: DT_FLOAT
    }
  }
  attr {
    key: "_class"
    value {
      list {
        s: "loc:@MobileNet/conv_ds_4/dw_batch_norm/beta"
      }
    }
  }
  attr {
    key: "use_locking"
    value {
      b: true
    }
  }
  attr {
    key: "validate_shape"
    value {
      b: true
    }
  }
}
node {
  name: "MobileNet/conv_ds_4/dw_batch_norm/beta/read"
  op: "Identity"
  input: "MobileNet/conv_ds_4/dw_batch_norm/beta"
  attr {
    key: "T"
    value {
      type: DT_FLOAT
    }
  }
  attr {
    key: "_class"
    value {
      list {
        s: "loc:@MobileNet/conv_ds_4/dw_batch_norm/beta"
      }
    }
  }
}
node {
  name: "MobileNet/conv_ds_4/dw_batch_norm/gamma/Initializer/Const"
  op: "Const"
  attr {
    key: "_class"
    value {
      list {
        s: "loc:@MobileNet/conv_ds_4/dw_batch_norm/gamma"
      }
    }
  }
  attr {
    key: "dtype"
    value {
      type: DT_FLOAT
    }
  }
  attr {
    key: "value"
    value {
      tensor {
        dtype: DT_FLOAT
        tensor_shape {
          dim {
            size: 64
          }
        }
        float_val: 1.0
      }
    }
  }
}
node {
  name: "MobileNet/conv_ds_4/dw_batch_norm/gamma"
  op: "VariableV2"
  attr {
    key: "_class"
    value {
      list {
        s: "loc:@MobileNet/conv_ds_4/dw_batch_norm/gamma"
      }
    }
  }
  attr {
    key: "container"
    value {
      s: ""
    }
  }
  attr {
    key: "dtype"
    value {
      type: DT_FLOAT
    }
  }
  attr {
    key: "shape"
    value {
      shape {
        dim {
          size: 64
        }
      }
    }
  }
  attr {
    key: "shared_name"
    value {
      s: ""
    }
  }
}
node {
  name: "MobileNet/conv_ds_4/dw_batch_norm/gamma/Assign"
  op: "Assign"
  input: "MobileNet/conv_ds_4/dw_batch_norm/gamma"
  input: "MobileNet/conv_ds_4/dw_batch_norm/gamma/Initializer/Const"
  attr {
    key: "T"
    value {
      type: DT_FLOAT
    }
  }
  attr {
    key: "_class"
    value {
      list {
        s: "loc:@MobileNet/conv_ds_4/dw_batch_norm/gamma"
      }
    }
  }
  attr {
    key: "use_locking"
    value {
      b: true
    }
  }
  attr {
    key: "validate_shape"
    value {
      b: true
    }
  }
}
node {
  name: "MobileNet/conv_ds_4/dw_batch_norm/gamma/read"
  op: "Identity"
  input: "MobileNet/conv_ds_4/dw_batch_norm/gamma"
  attr {
    key: "T"
    value {
      type: DT_FLOAT
    }
  }
  attr {
    key: "_class"
    value {
      list {
        s: "loc:@MobileNet/conv_ds_4/dw_batch_norm/gamma"
      }
    }
  }
}
node {
  name: "MobileNet/conv_ds_4/dw_batch_norm/moving_mean/Initializer/Const"
  op: "Const"
  attr {
    key: "_class"
    value {
      list {
        s: "loc:@MobileNet/conv_ds_4/dw_batch_norm/moving_mean"
      }
    }
  }
  attr {
    key: "dtype"
    value {
      type: DT_FLOAT
    }
  }
  attr {
    key: "value"
    value {
      tensor {
        dtype: DT_FLOAT
        tensor_shape {
          dim {
            size: 64
          }
        }
        float_val: 0.0
      }
    }
  }
}
node {
  name: "MobileNet/conv_ds_4/dw_batch_norm/moving_mean"
  op: "VariableV2"
  attr {
    key: "_class"
    value {
      list {
        s: "loc:@MobileNet/conv_ds_4/dw_batch_norm/moving_mean"
      }
    }
  }
  attr {
    key: "container"
    value {
      s: ""
    }
  }
  attr {
    key: "dtype"
    value {
      type: DT_FLOAT
    }
  }
  attr {
    key: "shape"
    value {
      shape {
        dim {
          size: 64
        }
      }
    }
  }
  attr {
    key: "shared_name"
    value {
      s: ""
    }
  }
}
node {
  name: "MobileNet/conv_ds_4/dw_batch_norm/moving_mean/Assign"
  op: "Assign"
  input: "MobileNet/conv_ds_4/dw_batch_norm/moving_mean"
  input: "MobileNet/conv_ds_4/dw_batch_norm/moving_mean/Initializer/Const"
  attr {
    key: "T"
    value {
      type: DT_FLOAT
    }
  }
  attr {
    key: "_class"
    value {
      list {
        s: "loc:@MobileNet/conv_ds_4/dw_batch_norm/moving_mean"
      }
    }
  }
  attr {
    key: "use_locking"
    value {
      b: true
    }
  }
  attr {
    key: "validate_shape"
    value {
      b: true
    }
  }
}
node {
  name: "MobileNet/conv_ds_4/dw_batch_norm/moving_mean/read"
  op: "Identity"
  input: "MobileNet/conv_ds_4/dw_batch_norm/moving_mean"
  attr {
    key: "T"
    value {
      type: DT_FLOAT
    }
  }
  attr {
    key: "_class"
    value {
      list {
        s: "loc:@MobileNet/conv_ds_4/dw_batch_norm/moving_mean"
      }
    }
  }
}
node {
  name: "MobileNet/conv_ds_4/dw_batch_norm/moving_variance/Initializer/Const"
  op: "Const"
  attr {
    key: "_class"
    value {
      list {
        s: "loc:@MobileNet/conv_ds_4/dw_batch_norm/moving_variance"
      }
    }
  }
  attr {
    key: "dtype"
    value {
      type: DT_FLOAT
    }
  }
  attr {
    key: "value"
    value {
      tensor {
        dtype: DT_FLOAT
        tensor_shape {
          dim {
            size: 64
          }
        }
        float_val: 1.0
      }
    }
  }
}
node {
  name: "MobileNet/conv_ds_4/dw_batch_norm/moving_variance"
  op: "VariableV2"
  attr {
    key: "_class"
    value {
      list {
        s: "loc:@MobileNet/conv_ds_4/dw_batch_norm/moving_variance"
      }
    }
  }
  attr {
    key: "container"
    value {
      s: ""
    }
  }
  attr {
    key: "dtype"
    value {
      type: DT_FLOAT
    }
  }
  attr {
    key: "shape"
    value {
      shape {
        dim {
          size: 64
        }
      }
    }
  }
  attr {
    key: "shared_name"
    value {
      s: ""
    }
  }
}
node {
  name: "MobileNet/conv_ds_4/dw_batch_norm/moving_variance/Assign"
  op: "Assign"
  input: "MobileNet/conv_ds_4/dw_batch_norm/moving_variance"
  input: "MobileNet/conv_ds_4/dw_batch_norm/moving_variance/Initializer/Const"
  attr {
    key: "T"
    value {
      type: DT_FLOAT
    }
  }
  attr {
    key: "_class"
    value {
      list {
        s: "loc:@MobileNet/conv_ds_4/dw_batch_norm/moving_variance"
      }
    }
  }
  attr {
    key: "use_locking"
    value {
      b: true
    }
  }
  attr {
    key: "validate_shape"
    value {
      b: true
    }
  }
}
node {
  name: "MobileNet/conv_ds_4/dw_batch_norm/moving_variance/read"
  op: "Identity"
  input: "MobileNet/conv_ds_4/dw_batch_norm/moving_variance"
  attr {
    key: "T"
    value {
      type: DT_FLOAT
    }
  }
  attr {
    key: "_class"
    value {
      list {
        s: "loc:@MobileNet/conv_ds_4/dw_batch_norm/moving_variance"
      }
    }
  }
}
node {
  name: "evaluation_360x640/MobileNet/conv_ds_4/dw_batch_norm/FusedBatchNorm"
  op: "FusedBatchNorm"
  input: "evaluation_360x640/MobileNet/conv_ds_4/depthwise_conv/BiasAdd"
  input: "MobileNet/conv_ds_4/dw_batch_norm/gamma/read"
  input: "MobileNet/conv_ds_4/dw_batch_norm/beta/read"
  input: "MobileNet/conv_ds_4/dw_batch_norm/moving_mean/read"
  input: "MobileNet/conv_ds_4/dw_batch_norm/moving_variance/read"
  attr {
    key: "T"
    value {
      type: DT_FLOAT
    }
  }
  attr {
    key: "data_format"
    value {
      s: "NHWC"
    }
  }
  attr {
    key: "epsilon"
    value {
      f: 0.0010000000474974513
    }
  }
  attr {
    key: "is_training"
    value {
      b: false
    }
  }
}
node {
  name: "evaluation_360x640/MobileNet/conv_ds_4/dw_batch_norm/Relu"
  op: "Relu"
  input: "evaluation_360x640/MobileNet/conv_ds_4/dw_batch_norm/FusedBatchNorm"
  attr {
    key: "T"
    value {
      type: DT_FLOAT
    }
  }
}
node {
  name: "MobileNet/conv_ds_4/pointwise_conv/weights/Initializer/random_uniform/shape"
  op: "Const"
  attr {
    key: "_class"
    value {
      list {
        s: "loc:@MobileNet/conv_ds_4/pointwise_conv/weights"
      }
    }
  }
  attr {
    key: "dtype"
    value {
      type: DT_INT32
    }
  }
  attr {
    key: "value"
    value {
      tensor {
        dtype: DT_INT32
        tensor_shape {
          dim {
            size: 4
          }
        }
        tensor_content: "\001\000\000\000\001\000\000\000@\000\000\000@\000\000\000"
      }
    }
  }
}
node {
  name: "MobileNet/conv_ds_4/pointwise_conv/weights/Initializer/random_uniform/min"
  op: "Const"
  attr {
    key: "_class"
    value {
      list {
        s: "loc:@MobileNet/conv_ds_4/pointwise_conv/weights"
      }
    }
  }
  attr {
    key: "dtype"
    value {
      type: DT_FLOAT
    }
  }
  attr {
    key: "value"
    value {
      tensor {
        dtype: DT_FLOAT
        tensor_shape {
        }
        float_val: -0.21650634706020355
      }
    }
  }
}
node {
  name: "MobileNet/conv_ds_4/pointwise_conv/weights/Initializer/random_uniform/max"
  op: "Const"
  attr {
    key: "_class"
    value {
      list {
        s: "loc:@MobileNet/conv_ds_4/pointwise_conv/weights"
      }
    }
  }
  attr {
    key: "dtype"
    value {
      type: DT_FLOAT
    }
  }
  attr {
    key: "value"
    value {
      tensor {
        dtype: DT_FLOAT
        tensor_shape {
        }
        float_val: 0.21650634706020355
      }
    }
  }
}
node {
  name: "MobileNet/conv_ds_4/pointwise_conv/weights/Initializer/random_uniform/RandomUniform"
  op: "RandomUniform"
  input: "MobileNet/conv_ds_4/pointwise_conv/weights/Initializer/random_uniform/shape"
  attr {
    key: "T"
    value {
      type: DT_INT32
    }
  }
  attr {
    key: "_class"
    value {
      list {
        s: "loc:@MobileNet/conv_ds_4/pointwise_conv/weights"
      }
    }
  }
  attr {
    key: "dtype"
    value {
      type: DT_FLOAT
    }
  }
  attr {
    key: "seed"
    value {
      i: 0
    }
  }
  attr {
    key: "seed2"
    value {
      i: 0
    }
  }
}
node {
  name: "MobileNet/conv_ds_4/pointwise_conv/weights/Initializer/random_uniform/sub"
  op: "Sub"
  input: "MobileNet/conv_ds_4/pointwise_conv/weights/Initializer/random_uniform/max"
  input: "MobileNet/conv_ds_4/pointwise_conv/weights/Initializer/random_uniform/min"
  attr {
    key: "T"
    value {
      type: DT_FLOAT
    }
  }
  attr {
    key: "_class"
    value {
      list {
        s: "loc:@MobileNet/conv_ds_4/pointwise_conv/weights"
      }
    }
  }
}
node {
  name: "MobileNet/conv_ds_4/pointwise_conv/weights/Initializer/random_uniform/mul"
  op: "Mul"
  input: "MobileNet/conv_ds_4/pointwise_conv/weights/Initializer/random_uniform/RandomUniform"
  input: "MobileNet/conv_ds_4/pointwise_conv/weights/Initializer/random_uniform/sub"
  attr {
    key: "T"
    value {
      type: DT_FLOAT
    }
  }
  attr {
    key: "_class"
    value {
      list {
        s: "loc:@MobileNet/conv_ds_4/pointwise_conv/weights"
      }
    }
  }
}
node {
  name: "MobileNet/conv_ds_4/pointwise_conv/weights/Initializer/random_uniform"
  op: "Add"
  input: "MobileNet/conv_ds_4/pointwise_conv/weights/Initializer/random_uniform/mul"
  input: "MobileNet/conv_ds_4/pointwise_conv/weights/Initializer/random_uniform/min"
  attr {
    key: "T"
    value {
      type: DT_FLOAT
    }
  }
  attr {
    key: "_class"
    value {
      list {
        s: "loc:@MobileNet/conv_ds_4/pointwise_conv/weights"
      }
    }
  }
}
node {
  name: "MobileNet/conv_ds_4/pointwise_conv/weights"
  op: "VariableV2"
  attr {
    key: "_class"
    value {
      list {
        s: "loc:@MobileNet/conv_ds_4/pointwise_conv/weights"
      }
    }
  }
  attr {
    key: "container"
    value {
      s: ""
    }
  }
  attr {
    key: "dtype"
    value {
      type: DT_FLOAT
    }
  }
  attr {
    key: "shape"
    value {
      shape {
        dim {
          size: 1
        }
        dim {
          size: 1
        }
        dim {
          size: 64
        }
        dim {
          size: 64
        }
      }
    }
  }
  attr {
    key: "shared_name"
    value {
      s: ""
    }
  }
}
node {
  name: "MobileNet/conv_ds_4/pointwise_conv/weights/Assign"
  op: "Assign"
  input: "MobileNet/conv_ds_4/pointwise_conv/weights"
  input: "MobileNet/conv_ds_4/pointwise_conv/weights/Initializer/random_uniform"
  attr {
    key: "T"
    value {
      type: DT_FLOAT
    }
  }
  attr {
    key: "_class"
    value {
      list {
        s: "loc:@MobileNet/conv_ds_4/pointwise_conv/weights"
      }
    }
  }
  attr {
    key: "use_locking"
    value {
      b: true
    }
  }
  attr {
    key: "validate_shape"
    value {
      b: true
    }
  }
}
node {
  name: "MobileNet/conv_ds_4/pointwise_conv/weights/read"
  op: "Identity"
  input: "MobileNet/conv_ds_4/pointwise_conv/weights"
  attr {
    key: "T"
    value {
      type: DT_FLOAT
    }
  }
  attr {
    key: "_class"
    value {
      list {
        s: "loc:@MobileNet/conv_ds_4/pointwise_conv/weights"
      }
    }
  }
}
node {
  name: "MobileNet/conv_ds_4/pointwise_conv/kernel/Regularizer/l2_regularizer/scale"
  op: "Const"
  attr {
    key: "_class"
    value {
      list {
        s: "loc:@MobileNet/conv_ds_4/pointwise_conv/weights"
      }
    }
  }
  attr {
    key: "dtype"
    value {
      type: DT_FLOAT
    }
  }
  attr {
    key: "value"
    value {
      tensor {
        dtype: DT_FLOAT
        tensor_shape {
        }
        float_val: 0.0005000000237487257
      }
    }
  }
}
node {
  name: "MobileNet/conv_ds_4/pointwise_conv/kernel/Regularizer/l2_regularizer/L2Loss"
  op: "L2Loss"
  input: "MobileNet/conv_ds_4/pointwise_conv/weights/read"
  attr {
    key: "T"
    value {
      type: DT_FLOAT
    }
  }
  attr {
    key: "_class"
    value {
      list {
        s: "loc:@MobileNet/conv_ds_4/pointwise_conv/weights"
      }
    }
  }
}
node {
  name: "MobileNet/conv_ds_4/pointwise_conv/kernel/Regularizer/l2_regularizer"
  op: "Mul"
  input: "MobileNet/conv_ds_4/pointwise_conv/kernel/Regularizer/l2_regularizer/scale"
  input: "MobileNet/conv_ds_4/pointwise_conv/kernel/Regularizer/l2_regularizer/L2Loss"
  attr {
    key: "T"
    value {
      type: DT_FLOAT
    }
  }
  attr {
    key: "_class"
    value {
      list {
        s: "loc:@MobileNet/conv_ds_4/pointwise_conv/weights"
      }
    }
  }
}
node {
  name: "MobileNet/conv_ds_4/pointwise_conv/biases/Initializer/Const"
  op: "Const"
  attr {
    key: "_class"
    value {
      list {
        s: "loc:@MobileNet/conv_ds_4/pointwise_conv/biases"
      }
    }
  }
  attr {
    key: "dtype"
    value {
      type: DT_FLOAT
    }
  }
  attr {
    key: "value"
    value {
      tensor {
        dtype: DT_FLOAT
        tensor_shape {
          dim {
            size: 64
          }
        }
        float_val: 0.0
      }
    }
  }
}
node {
  name: "MobileNet/conv_ds_4/pointwise_conv/biases"
  op: "VariableV2"
  attr {
    key: "_class"
    value {
      list {
        s: "loc:@MobileNet/conv_ds_4/pointwise_conv/biases"
      }
    }
  }
  attr {
    key: "container"
    value {
      s: ""
    }
  }
  attr {
    key: "dtype"
    value {
      type: DT_FLOAT
    }
  }
  attr {
    key: "shape"
    value {
      shape {
        dim {
          size: 64
        }
      }
    }
  }
  attr {
    key: "shared_name"
    value {
      s: ""
    }
  }
}
node {
  name: "MobileNet/conv_ds_4/pointwise_conv/biases/Assign"
  op: "Assign"
  input: "MobileNet/conv_ds_4/pointwise_conv/biases"
  input: "MobileNet/conv_ds_4/pointwise_conv/biases/Initializer/Const"
  attr {
    key: "T"
    value {
      type: DT_FLOAT
    }
  }
  attr {
    key: "_class"
    value {
      list {
        s: "loc:@MobileNet/conv_ds_4/pointwise_conv/biases"
      }
    }
  }
  attr {
    key: "use_locking"
    value {
      b: true
    }
  }
  attr {
    key: "validate_shape"
    value {
      b: true
    }
  }
}
node {
  name: "MobileNet/conv_ds_4/pointwise_conv/biases/read"
  op: "Identity"
  input: "MobileNet/conv_ds_4/pointwise_conv/biases"
  attr {
    key: "T"
    value {
      type: DT_FLOAT
    }
  }
  attr {
    key: "_class"
    value {
      list {
        s: "loc:@MobileNet/conv_ds_4/pointwise_conv/biases"
      }
    }
  }
}
node {
  name: "evaluation_360x640/MobileNet/conv_ds_4/pointwise_conv/convolution/Shape"
  op: "Const"
  attr {
    key: "dtype"
    value {
      type: DT_INT32
    }
  }
  attr {
    key: "value"
    value {
      tensor {
        dtype: DT_INT32
        tensor_shape {
          dim {
            size: 4
          }
        }
        tensor_content: "\001\000\000\000\001\000\000\000@\000\000\000@\000\000\000"
      }
    }
  }
}
node {
  name: "evaluation_360x640/MobileNet/conv_ds_4/pointwise_conv/convolution/dilation_rate"
  op: "Const"
  attr {
    key: "dtype"
    value {
      type: DT_INT32
    }
  }
  attr {
    key: "value"
    value {
      tensor {
        dtype: DT_INT32
        tensor_shape {
          dim {
            size: 2
          }
        }
        tensor_content: "\001\000\000\000\001\000\000\000"
      }
    }
  }
}
node {
  name: "evaluation_360x640/MobileNet/conv_ds_4/pointwise_conv/convolution"
  op: "Conv2D"
  input: "evaluation_360x640/MobileNet/conv_ds_4/dw_batch_norm/Relu"
  input: "MobileNet/conv_ds_4/pointwise_conv/weights/read"
  attr {
    key: "T"
    value {
      type: DT_FLOAT
    }
  }
  attr {
    key: "data_format"
    value {
      s: "NHWC"
    }
  }
  attr {
    key: "padding"
    value {
      s: "SAME"
    }
  }
  attr {
    key: "strides"
    value {
      list {
        i: 1
        i: 1
        i: 1
        i: 1
      }
    }
  }
  attr {
    key: "use_cudnn_on_gpu"
    value {
      b: true
    }
  }
}
node {
  name: "evaluation_360x640/MobileNet/conv_ds_4/pointwise_conv/BiasAdd"
  op: "BiasAdd"
  input: "evaluation_360x640/MobileNet/conv_ds_4/pointwise_conv/convolution"
  input: "MobileNet/conv_ds_4/pointwise_conv/biases/read"
  attr {
    key: "T"
    value {
      type: DT_FLOAT
    }
  }
  attr {
    key: "data_format"
    value {
      s: "NHWC"
    }
  }
}
node {
  name: "MobileNet/conv_ds_4/pw_batch_norm/beta/Initializer/Const"
  op: "Const"
  attr {
    key: "_class"
    value {
      list {
        s: "loc:@MobileNet/conv_ds_4/pw_batch_norm/beta"
      }
    }
  }
  attr {
    key: "dtype"
    value {
      type: DT_FLOAT
    }
  }
  attr {
    key: "value"
    value {
      tensor {
        dtype: DT_FLOAT
        tensor_shape {
          dim {
            size: 64
          }
        }
        float_val: 0.0
      }
    }
  }
}
node {
  name: "MobileNet/conv_ds_4/pw_batch_norm/beta"
  op: "VariableV2"
  attr {
    key: "_class"
    value {
      list {
        s: "loc:@MobileNet/conv_ds_4/pw_batch_norm/beta"
      }
    }
  }
  attr {
    key: "container"
    value {
      s: ""
    }
  }
  attr {
    key: "dtype"
    value {
      type: DT_FLOAT
    }
  }
  attr {
    key: "shape"
    value {
      shape {
        dim {
          size: 64
        }
      }
    }
  }
  attr {
    key: "shared_name"
    value {
      s: ""
    }
  }
}
node {
  name: "MobileNet/conv_ds_4/pw_batch_norm/beta/Assign"
  op: "Assign"
  input: "MobileNet/conv_ds_4/pw_batch_norm/beta"
  input: "MobileNet/conv_ds_4/pw_batch_norm/beta/Initializer/Const"
  attr {
    key: "T"
    value {
      type: DT_FLOAT
    }
  }
  attr {
    key: "_class"
    value {
      list {
        s: "loc:@MobileNet/conv_ds_4/pw_batch_norm/beta"
      }
    }
  }
  attr {
    key: "use_locking"
    value {
      b: true
    }
  }
  attr {
    key: "validate_shape"
    value {
      b: true
    }
  }
}
node {
  name: "MobileNet/conv_ds_4/pw_batch_norm/beta/read"
  op: "Identity"
  input: "MobileNet/conv_ds_4/pw_batch_norm/beta"
  attr {
    key: "T"
    value {
      type: DT_FLOAT
    }
  }
  attr {
    key: "_class"
    value {
      list {
        s: "loc:@MobileNet/conv_ds_4/pw_batch_norm/beta"
      }
    }
  }
}
node {
  name: "MobileNet/conv_ds_4/pw_batch_norm/gamma/Initializer/Const"
  op: "Const"
  attr {
    key: "_class"
    value {
      list {
        s: "loc:@MobileNet/conv_ds_4/pw_batch_norm/gamma"
      }
    }
  }
  attr {
    key: "dtype"
    value {
      type: DT_FLOAT
    }
  }
  attr {
    key: "value"
    value {
      tensor {
        dtype: DT_FLOAT
        tensor_shape {
          dim {
            size: 64
          }
        }
        float_val: 1.0
      }
    }
  }
}
node {
  name: "MobileNet/conv_ds_4/pw_batch_norm/gamma"
  op: "VariableV2"
  attr {
    key: "_class"
    value {
      list {
        s: "loc:@MobileNet/conv_ds_4/pw_batch_norm/gamma"
      }
    }
  }
  attr {
    key: "container"
    value {
      s: ""
    }
  }
  attr {
    key: "dtype"
    value {
      type: DT_FLOAT
    }
  }
  attr {
    key: "shape"
    value {
      shape {
        dim {
          size: 64
        }
      }
    }
  }
  attr {
    key: "shared_name"
    value {
      s: ""
    }
  }
}
node {
  name: "MobileNet/conv_ds_4/pw_batch_norm/gamma/Assign"
  op: "Assign"
  input: "MobileNet/conv_ds_4/pw_batch_norm/gamma"
  input: "MobileNet/conv_ds_4/pw_batch_norm/gamma/Initializer/Const"
  attr {
    key: "T"
    value {
      type: DT_FLOAT
    }
  }
  attr {
    key: "_class"
    value {
      list {
        s: "loc:@MobileNet/conv_ds_4/pw_batch_norm/gamma"
      }
    }
  }
  attr {
    key: "use_locking"
    value {
      b: true
    }
  }
  attr {
    key: "validate_shape"
    value {
      b: true
    }
  }
}
node {
  name: "MobileNet/conv_ds_4/pw_batch_norm/gamma/read"
  op: "Identity"
  input: "MobileNet/conv_ds_4/pw_batch_norm/gamma"
  attr {
    key: "T"
    value {
      type: DT_FLOAT
    }
  }
  attr {
    key: "_class"
    value {
      list {
        s: "loc:@MobileNet/conv_ds_4/pw_batch_norm/gamma"
      }
    }
  }
}
node {
  name: "MobileNet/conv_ds_4/pw_batch_norm/moving_mean/Initializer/Const"
  op: "Const"
  attr {
    key: "_class"
    value {
      list {
        s: "loc:@MobileNet/conv_ds_4/pw_batch_norm/moving_mean"
      }
    }
  }
  attr {
    key: "dtype"
    value {
      type: DT_FLOAT
    }
  }
  attr {
    key: "value"
    value {
      tensor {
        dtype: DT_FLOAT
        tensor_shape {
          dim {
            size: 64
          }
        }
        float_val: 0.0
      }
    }
  }
}
node {
  name: "MobileNet/conv_ds_4/pw_batch_norm/moving_mean"
  op: "VariableV2"
  attr {
    key: "_class"
    value {
      list {
        s: "loc:@MobileNet/conv_ds_4/pw_batch_norm/moving_mean"
      }
    }
  }
  attr {
    key: "container"
    value {
      s: ""
    }
  }
  attr {
    key: "dtype"
    value {
      type: DT_FLOAT
    }
  }
  attr {
    key: "shape"
    value {
      shape {
        dim {
          size: 64
        }
      }
    }
  }
  attr {
    key: "shared_name"
    value {
      s: ""
    }
  }
}
node {
  name: "MobileNet/conv_ds_4/pw_batch_norm/moving_mean/Assign"
  op: "Assign"
  input: "MobileNet/conv_ds_4/pw_batch_norm/moving_mean"
  input: "MobileNet/conv_ds_4/pw_batch_norm/moving_mean/Initializer/Const"
  attr {
    key: "T"
    value {
      type: DT_FLOAT
    }
  }
  attr {
    key: "_class"
    value {
      list {
        s: "loc:@MobileNet/conv_ds_4/pw_batch_norm/moving_mean"
      }
    }
  }
  attr {
    key: "use_locking"
    value {
      b: true
    }
  }
  attr {
    key: "validate_shape"
    value {
      b: true
    }
  }
}
node {
  name: "MobileNet/conv_ds_4/pw_batch_norm/moving_mean/read"
  op: "Identity"
  input: "MobileNet/conv_ds_4/pw_batch_norm/moving_mean"
  attr {
    key: "T"
    value {
      type: DT_FLOAT
    }
  }
  attr {
    key: "_class"
    value {
      list {
        s: "loc:@MobileNet/conv_ds_4/pw_batch_norm/moving_mean"
      }
    }
  }
}
node {
  name: "MobileNet/conv_ds_4/pw_batch_norm/moving_variance/Initializer/Const"
  op: "Const"
  attr {
    key: "_class"
    value {
      list {
        s: "loc:@MobileNet/conv_ds_4/pw_batch_norm/moving_variance"
      }
    }
  }
  attr {
    key: "dtype"
    value {
      type: DT_FLOAT
    }
  }
  attr {
    key: "value"
    value {
      tensor {
        dtype: DT_FLOAT
        tensor_shape {
          dim {
            size: 64
          }
        }
        float_val: 1.0
      }
    }
  }
}
node {
  name: "MobileNet/conv_ds_4/pw_batch_norm/moving_variance"
  op: "VariableV2"
  attr {
    key: "_class"
    value {
      list {
        s: "loc:@MobileNet/conv_ds_4/pw_batch_norm/moving_variance"
      }
    }
  }
  attr {
    key: "container"
    value {
      s: ""
    }
  }
  attr {
    key: "dtype"
    value {
      type: DT_FLOAT
    }
  }
  attr {
    key: "shape"
    value {
      shape {
        dim {
          size: 64
        }
      }
    }
  }
  attr {
    key: "shared_name"
    value {
      s: ""
    }
  }
}
node {
  name: "MobileNet/conv_ds_4/pw_batch_norm/moving_variance/Assign"
  op: "Assign"
  input: "MobileNet/conv_ds_4/pw_batch_norm/moving_variance"
  input: "MobileNet/conv_ds_4/pw_batch_norm/moving_variance/Initializer/Const"
  attr {
    key: "T"
    value {
      type: DT_FLOAT
    }
  }
  attr {
    key: "_class"
    value {
      list {
        s: "loc:@MobileNet/conv_ds_4/pw_batch_norm/moving_variance"
      }
    }
  }
  attr {
    key: "use_locking"
    value {
      b: true
    }
  }
  attr {
    key: "validate_shape"
    value {
      b: true
    }
  }
}
node {
  name: "MobileNet/conv_ds_4/pw_batch_norm/moving_variance/read"
  op: "Identity"
  input: "MobileNet/conv_ds_4/pw_batch_norm/moving_variance"
  attr {
    key: "T"
    value {
      type: DT_FLOAT
    }
  }
  attr {
    key: "_class"
    value {
      list {
        s: "loc:@MobileNet/conv_ds_4/pw_batch_norm/moving_variance"
      }
    }
  }
}
node {
  name: "evaluation_360x640/MobileNet/conv_ds_4/pw_batch_norm/FusedBatchNorm"
  op: "FusedBatchNorm"
  input: "evaluation_360x640/MobileNet/conv_ds_4/pointwise_conv/BiasAdd"
  input: "MobileNet/conv_ds_4/pw_batch_norm/gamma/read"
  input: "MobileNet/conv_ds_4/pw_batch_norm/beta/read"
  input: "MobileNet/conv_ds_4/pw_batch_norm/moving_mean/read"
  input: "MobileNet/conv_ds_4/pw_batch_norm/moving_variance/read"
  attr {
    key: "T"
    value {
      type: DT_FLOAT
    }
  }
  attr {
    key: "data_format"
    value {
      s: "NHWC"
    }
  }
  attr {
    key: "epsilon"
    value {
      f: 0.0010000000474974513
    }
  }
  attr {
    key: "is_training"
    value {
      b: false
    }
  }
}
node {
  name: "evaluation_360x640/MobileNet/conv_ds_4/pw_batch_norm/Relu"
  op: "Relu"
  input: "evaluation_360x640/MobileNet/conv_ds_4/pw_batch_norm/FusedBatchNorm"
  attr {
    key: "T"
    value {
      type: DT_FLOAT
    }
  }
}
node {
  name: "MobileNet/conv_ds_5/depthwise_conv/depthwise_weights/Initializer/random_uniform/shape"
  op: "Const"
  attr {
    key: "_class"
    value {
      list {
        s: "loc:@MobileNet/conv_ds_5/depthwise_conv/depthwise_weights"
      }
    }
  }
  attr {
    key: "dtype"
    value {
      type: DT_INT32
    }
  }
  attr {
    key: "value"
    value {
      tensor {
        dtype: DT_INT32
        tensor_shape {
          dim {
            size: 4
          }
        }
        tensor_content: "\003\000\000\000\003\000\000\000@\000\000\000\001\000\000\000"
      }
    }
  }
}
node {
  name: "MobileNet/conv_ds_5/depthwise_conv/depthwise_weights/Initializer/random_uniform/min"
  op: "Const"
  attr {
    key: "_class"
    value {
      list {
        s: "loc:@MobileNet/conv_ds_5/depthwise_conv/depthwise_weights"
      }
    }
  }
  attr {
    key: "dtype"
    value {
      type: DT_FLOAT
    }
  }
  attr {
    key: "value"
    value {
      tensor {
        dtype: DT_FLOAT
        tensor_shape {
        }
        float_val: -0.10127393901348114
      }
    }
  }
}
node {
  name: "MobileNet/conv_ds_5/depthwise_conv/depthwise_weights/Initializer/random_uniform/max"
  op: "Const"
  attr {
    key: "_class"
    value {
      list {
        s: "loc:@MobileNet/conv_ds_5/depthwise_conv/depthwise_weights"
      }
    }
  }
  attr {
    key: "dtype"
    value {
      type: DT_FLOAT
    }
  }
  attr {
    key: "value"
    value {
      tensor {
        dtype: DT_FLOAT
        tensor_shape {
        }
        float_val: 0.10127393901348114
      }
    }
  }
}
node {
  name: "MobileNet/conv_ds_5/depthwise_conv/depthwise_weights/Initializer/random_uniform/RandomUniform"
  op: "RandomUniform"
  input: "MobileNet/conv_ds_5/depthwise_conv/depthwise_weights/Initializer/random_uniform/shape"
  attr {
    key: "T"
    value {
      type: DT_INT32
    }
  }
  attr {
    key: "_class"
    value {
      list {
        s: "loc:@MobileNet/conv_ds_5/depthwise_conv/depthwise_weights"
      }
    }
  }
  attr {
    key: "dtype"
    value {
      type: DT_FLOAT
    }
  }
  attr {
    key: "seed"
    value {
      i: 0
    }
  }
  attr {
    key: "seed2"
    value {
      i: 0
    }
  }
}
node {
  name: "MobileNet/conv_ds_5/depthwise_conv/depthwise_weights/Initializer/random_uniform/sub"
  op: "Sub"
  input: "MobileNet/conv_ds_5/depthwise_conv/depthwise_weights/Initializer/random_uniform/max"
  input: "MobileNet/conv_ds_5/depthwise_conv/depthwise_weights/Initializer/random_uniform/min"
  attr {
    key: "T"
    value {
      type: DT_FLOAT
    }
  }
  attr {
    key: "_class"
    value {
      list {
        s: "loc:@MobileNet/conv_ds_5/depthwise_conv/depthwise_weights"
      }
    }
  }
}
node {
  name: "MobileNet/conv_ds_5/depthwise_conv/depthwise_weights/Initializer/random_uniform/mul"
  op: "Mul"
  input: "MobileNet/conv_ds_5/depthwise_conv/depthwise_weights/Initializer/random_uniform/RandomUniform"
  input: "MobileNet/conv_ds_5/depthwise_conv/depthwise_weights/Initializer/random_uniform/sub"
  attr {
    key: "T"
    value {
      type: DT_FLOAT
    }
  }
  attr {
    key: "_class"
    value {
      list {
        s: "loc:@MobileNet/conv_ds_5/depthwise_conv/depthwise_weights"
      }
    }
  }
}
node {
  name: "MobileNet/conv_ds_5/depthwise_conv/depthwise_weights/Initializer/random_uniform"
  op: "Add"
  input: "MobileNet/conv_ds_5/depthwise_conv/depthwise_weights/Initializer/random_uniform/mul"
  input: "MobileNet/conv_ds_5/depthwise_conv/depthwise_weights/Initializer/random_uniform/min"
  attr {
    key: "T"
    value {
      type: DT_FLOAT
    }
  }
  attr {
    key: "_class"
    value {
      list {
        s: "loc:@MobileNet/conv_ds_5/depthwise_conv/depthwise_weights"
      }
    }
  }
}
node {
  name: "MobileNet/conv_ds_5/depthwise_conv/depthwise_weights"
  op: "VariableV2"
  attr {
    key: "_class"
    value {
      list {
        s: "loc:@MobileNet/conv_ds_5/depthwise_conv/depthwise_weights"
      }
    }
  }
  attr {
    key: "container"
    value {
      s: ""
    }
  }
  attr {
    key: "dtype"
    value {
      type: DT_FLOAT
    }
  }
  attr {
    key: "shape"
    value {
      shape {
        dim {
          size: 3
        }
        dim {
          size: 3
        }
        dim {
          size: 64
        }
        dim {
          size: 1
        }
      }
    }
  }
  attr {
    key: "shared_name"
    value {
      s: ""
    }
  }
}
node {
  name: "MobileNet/conv_ds_5/depthwise_conv/depthwise_weights/Assign"
  op: "Assign"
  input: "MobileNet/conv_ds_5/depthwise_conv/depthwise_weights"
  input: "MobileNet/conv_ds_5/depthwise_conv/depthwise_weights/Initializer/random_uniform"
  attr {
    key: "T"
    value {
      type: DT_FLOAT
    }
  }
  attr {
    key: "_class"
    value {
      list {
        s: "loc:@MobileNet/conv_ds_5/depthwise_conv/depthwise_weights"
      }
    }
  }
  attr {
    key: "use_locking"
    value {
      b: true
    }
  }
  attr {
    key: "validate_shape"
    value {
      b: true
    }
  }
}
node {
  name: "MobileNet/conv_ds_5/depthwise_conv/depthwise_weights/read"
  op: "Identity"
  input: "MobileNet/conv_ds_5/depthwise_conv/depthwise_weights"
  attr {
    key: "T"
    value {
      type: DT_FLOAT
    }
  }
  attr {
    key: "_class"
    value {
      list {
        s: "loc:@MobileNet/conv_ds_5/depthwise_conv/depthwise_weights"
      }
    }
  }
}
node {
  name: "evaluation_360x640/MobileNet/conv_ds_5/depthwise_conv/depthwise/Shape"
  op: "Const"
  attr {
    key: "dtype"
    value {
      type: DT_INT32
    }
  }
  attr {
    key: "value"
    value {
      tensor {
        dtype: DT_INT32
        tensor_shape {
          dim {
            size: 4
          }
        }
        tensor_content: "\003\000\000\000\003\000\000\000@\000\000\000\001\000\000\000"
      }
    }
  }
}
node {
  name: "evaluation_360x640/MobileNet/conv_ds_5/depthwise_conv/depthwise/dilation_rate"
  op: "Const"
  attr {
    key: "dtype"
    value {
      type: DT_INT32
    }
  }
  attr {
    key: "value"
    value {
      tensor {
        dtype: DT_INT32
        tensor_shape {
          dim {
            size: 2
          }
        }
        tensor_content: "\001\000\000\000\001\000\000\000"
      }
    }
  }
}
node {
  name: "evaluation_360x640/MobileNet/conv_ds_5/depthwise_conv/depthwise"
  op: "DepthwiseConv2dNative"
  input: "evaluation_360x640/MobileNet/conv_ds_4/pw_batch_norm/Relu"
  input: "MobileNet/conv_ds_5/depthwise_conv/depthwise_weights/read"
  attr {
    key: "T"
    value {
      type: DT_FLOAT
    }
  }
  attr {
    key: "data_format"
    value {
      s: "NHWC"
    }
  }
  attr {
    key: "padding"
    value {
      s: "SAME"
    }
  }
  attr {
    key: "strides"
    value {
      list {
        i: 1
        i: 2
        i: 2
        i: 1
      }
    }
  }
}
node {
  name: "MobileNet/conv_ds_5/depthwise_conv/biases/Initializer/Const"
  op: "Const"
  attr {
    key: "_class"
    value {
      list {
        s: "loc:@MobileNet/conv_ds_5/depthwise_conv/biases"
      }
    }
  }
  attr {
    key: "dtype"
    value {
      type: DT_FLOAT
    }
  }
  attr {
    key: "value"
    value {
      tensor {
        dtype: DT_FLOAT
        tensor_shape {
          dim {
            size: 64
          }
        }
        float_val: 0.0
      }
    }
  }
}
node {
  name: "MobileNet/conv_ds_5/depthwise_conv/biases"
  op: "VariableV2"
  attr {
    key: "_class"
    value {
      list {
        s: "loc:@MobileNet/conv_ds_5/depthwise_conv/biases"
      }
    }
  }
  attr {
    key: "container"
    value {
      s: ""
    }
  }
  attr {
    key: "dtype"
    value {
      type: DT_FLOAT
    }
  }
  attr {
    key: "shape"
    value {
      shape {
        dim {
          size: 64
        }
      }
    }
  }
  attr {
    key: "shared_name"
    value {
      s: ""
    }
  }
}
node {
  name: "MobileNet/conv_ds_5/depthwise_conv/biases/Assign"
  op: "Assign"
  input: "MobileNet/conv_ds_5/depthwise_conv/biases"
  input: "MobileNet/conv_ds_5/depthwise_conv/biases/Initializer/Const"
  attr {
    key: "T"
    value {
      type: DT_FLOAT
    }
  }
  attr {
    key: "_class"
    value {
      list {
        s: "loc:@MobileNet/conv_ds_5/depthwise_conv/biases"
      }
    }
  }
  attr {
    key: "use_locking"
    value {
      b: true
    }
  }
  attr {
    key: "validate_shape"
    value {
      b: true
    }
  }
}
node {
  name: "MobileNet/conv_ds_5/depthwise_conv/biases/read"
  op: "Identity"
  input: "MobileNet/conv_ds_5/depthwise_conv/biases"
  attr {
    key: "T"
    value {
      type: DT_FLOAT
    }
  }
  attr {
    key: "_class"
    value {
      list {
        s: "loc:@MobileNet/conv_ds_5/depthwise_conv/biases"
      }
    }
  }
}
node {
  name: "evaluation_360x640/MobileNet/conv_ds_5/depthwise_conv/BiasAdd"
  op: "BiasAdd"
  input: "evaluation_360x640/MobileNet/conv_ds_5/depthwise_conv/depthwise"
  input: "MobileNet/conv_ds_5/depthwise_conv/biases/read"
  attr {
    key: "T"
    value {
      type: DT_FLOAT
    }
  }
  attr {
    key: "data_format"
    value {
      s: "NHWC"
    }
  }
}
node {
  name: "MobileNet/conv_ds_5/dw_batch_norm/beta/Initializer/Const"
  op: "Const"
  attr {
    key: "_class"
    value {
      list {
        s: "loc:@MobileNet/conv_ds_5/dw_batch_norm/beta"
      }
    }
  }
  attr {
    key: "dtype"
    value {
      type: DT_FLOAT
    }
  }
  attr {
    key: "value"
    value {
      tensor {
        dtype: DT_FLOAT
        tensor_shape {
          dim {
            size: 64
          }
        }
        float_val: 0.0
      }
    }
  }
}
node {
  name: "MobileNet/conv_ds_5/dw_batch_norm/beta"
  op: "VariableV2"
  attr {
    key: "_class"
    value {
      list {
        s: "loc:@MobileNet/conv_ds_5/dw_batch_norm/beta"
      }
    }
  }
  attr {
    key: "container"
    value {
      s: ""
    }
  }
  attr {
    key: "dtype"
    value {
      type: DT_FLOAT
    }
  }
  attr {
    key: "shape"
    value {
      shape {
        dim {
          size: 64
        }
      }
    }
  }
  attr {
    key: "shared_name"
    value {
      s: ""
    }
  }
}
node {
  name: "MobileNet/conv_ds_5/dw_batch_norm/beta/Assign"
  op: "Assign"
  input: "MobileNet/conv_ds_5/dw_batch_norm/beta"
  input: "MobileNet/conv_ds_5/dw_batch_norm/beta/Initializer/Const"
  attr {
    key: "T"
    value {
      type: DT_FLOAT
    }
  }
  attr {
    key: "_class"
    value {
      list {
        s: "loc:@MobileNet/conv_ds_5/dw_batch_norm/beta"
      }
    }
  }
  attr {
    key: "use_locking"
    value {
      b: true
    }
  }
  attr {
    key: "validate_shape"
    value {
      b: true
    }
  }
}
node {
  name: "MobileNet/conv_ds_5/dw_batch_norm/beta/read"
  op: "Identity"
  input: "MobileNet/conv_ds_5/dw_batch_norm/beta"
  attr {
    key: "T"
    value {
      type: DT_FLOAT
    }
  }
  attr {
    key: "_class"
    value {
      list {
        s: "loc:@MobileNet/conv_ds_5/dw_batch_norm/beta"
      }
    }
  }
}
node {
  name: "MobileNet/conv_ds_5/dw_batch_norm/gamma/Initializer/Const"
  op: "Const"
  attr {
    key: "_class"
    value {
      list {
        s: "loc:@MobileNet/conv_ds_5/dw_batch_norm/gamma"
      }
    }
  }
  attr {
    key: "dtype"
    value {
      type: DT_FLOAT
    }
  }
  attr {
    key: "value"
    value {
      tensor {
        dtype: DT_FLOAT
        tensor_shape {
          dim {
            size: 64
          }
        }
        float_val: 1.0
      }
    }
  }
}
node {
  name: "MobileNet/conv_ds_5/dw_batch_norm/gamma"
  op: "VariableV2"
  attr {
    key: "_class"
    value {
      list {
        s: "loc:@MobileNet/conv_ds_5/dw_batch_norm/gamma"
      }
    }
  }
  attr {
    key: "container"
    value {
      s: ""
    }
  }
  attr {
    key: "dtype"
    value {
      type: DT_FLOAT
    }
  }
  attr {
    key: "shape"
    value {
      shape {
        dim {
          size: 64
        }
      }
    }
  }
  attr {
    key: "shared_name"
    value {
      s: ""
    }
  }
}
node {
  name: "MobileNet/conv_ds_5/dw_batch_norm/gamma/Assign"
  op: "Assign"
  input: "MobileNet/conv_ds_5/dw_batch_norm/gamma"
  input: "MobileNet/conv_ds_5/dw_batch_norm/gamma/Initializer/Const"
  attr {
    key: "T"
    value {
      type: DT_FLOAT
    }
  }
  attr {
    key: "_class"
    value {
      list {
        s: "loc:@MobileNet/conv_ds_5/dw_batch_norm/gamma"
      }
    }
  }
  attr {
    key: "use_locking"
    value {
      b: true
    }
  }
  attr {
    key: "validate_shape"
    value {
      b: true
    }
  }
}
node {
  name: "MobileNet/conv_ds_5/dw_batch_norm/gamma/read"
  op: "Identity"
  input: "MobileNet/conv_ds_5/dw_batch_norm/gamma"
  attr {
    key: "T"
    value {
      type: DT_FLOAT
    }
  }
  attr {
    key: "_class"
    value {
      list {
        s: "loc:@MobileNet/conv_ds_5/dw_batch_norm/gamma"
      }
    }
  }
}
node {
  name: "MobileNet/conv_ds_5/dw_batch_norm/moving_mean/Initializer/Const"
  op: "Const"
  attr {
    key: "_class"
    value {
      list {
        s: "loc:@MobileNet/conv_ds_5/dw_batch_norm/moving_mean"
      }
    }
  }
  attr {
    key: "dtype"
    value {
      type: DT_FLOAT
    }
  }
  attr {
    key: "value"
    value {
      tensor {
        dtype: DT_FLOAT
        tensor_shape {
          dim {
            size: 64
          }
        }
        float_val: 0.0
      }
    }
  }
}
node {
  name: "MobileNet/conv_ds_5/dw_batch_norm/moving_mean"
  op: "VariableV2"
  attr {
    key: "_class"
    value {
      list {
        s: "loc:@MobileNet/conv_ds_5/dw_batch_norm/moving_mean"
      }
    }
  }
  attr {
    key: "container"
    value {
      s: ""
    }
  }
  attr {
    key: "dtype"
    value {
      type: DT_FLOAT
    }
  }
  attr {
    key: "shape"
    value {
      shape {
        dim {
          size: 64
        }
      }
    }
  }
  attr {
    key: "shared_name"
    value {
      s: ""
    }
  }
}
node {
  name: "MobileNet/conv_ds_5/dw_batch_norm/moving_mean/Assign"
  op: "Assign"
  input: "MobileNet/conv_ds_5/dw_batch_norm/moving_mean"
  input: "MobileNet/conv_ds_5/dw_batch_norm/moving_mean/Initializer/Const"
  attr {
    key: "T"
    value {
      type: DT_FLOAT
    }
  }
  attr {
    key: "_class"
    value {
      list {
        s: "loc:@MobileNet/conv_ds_5/dw_batch_norm/moving_mean"
      }
    }
  }
  attr {
    key: "use_locking"
    value {
      b: true
    }
  }
  attr {
    key: "validate_shape"
    value {
      b: true
    }
  }
}
node {
  name: "MobileNet/conv_ds_5/dw_batch_norm/moving_mean/read"
  op: "Identity"
  input: "MobileNet/conv_ds_5/dw_batch_norm/moving_mean"
  attr {
    key: "T"
    value {
      type: DT_FLOAT
    }
  }
  attr {
    key: "_class"
    value {
      list {
        s: "loc:@MobileNet/conv_ds_5/dw_batch_norm/moving_mean"
      }
    }
  }
}
node {
  name: "MobileNet/conv_ds_5/dw_batch_norm/moving_variance/Initializer/Const"
  op: "Const"
  attr {
    key: "_class"
    value {
      list {
        s: "loc:@MobileNet/conv_ds_5/dw_batch_norm/moving_variance"
      }
    }
  }
  attr {
    key: "dtype"
    value {
      type: DT_FLOAT
    }
  }
  attr {
    key: "value"
    value {
      tensor {
        dtype: DT_FLOAT
        tensor_shape {
          dim {
            size: 64
          }
        }
        float_val: 1.0
      }
    }
  }
}
node {
  name: "MobileNet/conv_ds_5/dw_batch_norm/moving_variance"
  op: "VariableV2"
  attr {
    key: "_class"
    value {
      list {
        s: "loc:@MobileNet/conv_ds_5/dw_batch_norm/moving_variance"
      }
    }
  }
  attr {
    key: "container"
    value {
      s: ""
    }
  }
  attr {
    key: "dtype"
    value {
      type: DT_FLOAT
    }
  }
  attr {
    key: "shape"
    value {
      shape {
        dim {
          size: 64
        }
      }
    }
  }
  attr {
    key: "shared_name"
    value {
      s: ""
    }
  }
}
node {
  name: "MobileNet/conv_ds_5/dw_batch_norm/moving_variance/Assign"
  op: "Assign"
  input: "MobileNet/conv_ds_5/dw_batch_norm/moving_variance"
  input: "MobileNet/conv_ds_5/dw_batch_norm/moving_variance/Initializer/Const"
  attr {
    key: "T"
    value {
      type: DT_FLOAT
    }
  }
  attr {
    key: "_class"
    value {
      list {
        s: "loc:@MobileNet/conv_ds_5/dw_batch_norm/moving_variance"
      }
    }
  }
  attr {
    key: "use_locking"
    value {
      b: true
    }
  }
  attr {
    key: "validate_shape"
    value {
      b: true
    }
  }
}
node {
  name: "MobileNet/conv_ds_5/dw_batch_norm/moving_variance/read"
  op: "Identity"
  input: "MobileNet/conv_ds_5/dw_batch_norm/moving_variance"
  attr {
    key: "T"
    value {
      type: DT_FLOAT
    }
  }
  attr {
    key: "_class"
    value {
      list {
        s: "loc:@MobileNet/conv_ds_5/dw_batch_norm/moving_variance"
      }
    }
  }
}
node {
  name: "evaluation_360x640/MobileNet/conv_ds_5/dw_batch_norm/FusedBatchNorm"
  op: "FusedBatchNorm"
  input: "evaluation_360x640/MobileNet/conv_ds_5/depthwise_conv/BiasAdd"
  input: "MobileNet/conv_ds_5/dw_batch_norm/gamma/read"
  input: "MobileNet/conv_ds_5/dw_batch_norm/beta/read"
  input: "MobileNet/conv_ds_5/dw_batch_norm/moving_mean/read"
  input: "MobileNet/conv_ds_5/dw_batch_norm/moving_variance/read"
  attr {
    key: "T"
    value {
      type: DT_FLOAT
    }
  }
  attr {
    key: "data_format"
    value {
      s: "NHWC"
    }
  }
  attr {
    key: "epsilon"
    value {
      f: 0.0010000000474974513
    }
  }
  attr {
    key: "is_training"
    value {
      b: false
    }
  }
}
node {
  name: "evaluation_360x640/MobileNet/conv_ds_5/dw_batch_norm/Relu"
  op: "Relu"
…
        tensor_shape {
          dim {
            size: 1
          }
        }
        string_val: "MobileNet/conv_ds_8/pointwise_conv/biases"
      }
    }
  }
}
node {
  name: "save/RestoreV2_108/shape_and_slices"
  op: "Const"
  attr {
    key: "dtype"
    value {
      type: DT_STRING
    }
  }
  attr {
    key: "value"
    value {
      tensor {
        dtype: DT_STRING
        tensor_shape {
          dim {
            size: 1
          }
        }
        string_val: ""
      }
    }
  }
}
node {
  name: "save/RestoreV2_108"
  op: "RestoreV2"
  input: "save/Const"
  input: "save/RestoreV2_108/tensor_names"
  input: "save/RestoreV2_108/shape_and_slices"
  attr {
    key: "dtypes"
    value {
      list {
        type: DT_FLOAT
      }
    }
  }
}
node {
  name: "save/Assign_108"
  op: "Assign"
  input: "MobileNet/conv_ds_8/pointwise_conv/biases"
  input: "save/RestoreV2_108"
  attr {
    key: "T"
    value {
      type: DT_FLOAT
    }
  }
  attr {
    key: "_class"
    value {
      list {
        s: "loc:@MobileNet/conv_ds_8/pointwise_conv/biases"
      }
    }
  }
  attr {
    key: "use_locking"
    value {
      b: true
    }
  }
  attr {
    key: "validate_shape"
    value {
      b: true
    }
  }
}
node {
  name: "save/RestoreV2_109/tensor_names"
  op: "Const"
  attr {
    key: "dtype"
    value {
      type: DT_STRING
    }
  }
  attr {
    key: "value"
    value {
      tensor {
        dtype: DT_STRING
        tensor_shape {
          dim {
            size: 1
          }
        }
        string_val: "MobileNet/conv_ds_8/pointwise_conv/weights"
      }
    }
  }
}
node {
  name: "save/RestoreV2_109/shape_and_slices"
  op: "Const"
  attr {
    key: "dtype"
    value {
      type: DT_STRING
    }
  }
  attr {
    key: "value"
    value {
      tensor {
        dtype: DT_STRING
        tensor_shape {
          dim {
            size: 1
          }
        }
        string_val: ""
      }
    }
  }
}
node {
  name: "save/RestoreV2_109"
  op: "RestoreV2"
  input: "save/Const"
  input: "save/RestoreV2_109/tensor_names"
  input: "save/RestoreV2_109/shape_and_slices"
  attr {
    key: "dtypes"
    value {
      list {
        type: DT_FLOAT
      }
    }
  }
}
node {
  name: "save/Assign_109"
  op: "Assign"
  input: "MobileNet/conv_ds_8/pointwise_conv/weights"
  input: "save/RestoreV2_109"
  attr {
    key: "T"
    value {
      type: DT_FLOAT
    }
  }
  attr {
    key: "_class"
    value {
      list {
        s: "loc:@MobileNet/conv_ds_8/pointwise_conv/weights"
      }
    }
  }
  attr {
    key: "use_locking"
    value {
      b: true
    }
  }
  attr {
    key: "validate_shape"
    value {
      b: true
    }
  }
}
node {
  name: "save/RestoreV2_110/tensor_names"
  op: "Const"
  attr {
    key: "dtype"
    value {
      type: DT_STRING
    }
  }
  attr {
    key: "value"
    value {
      tensor {
        dtype: DT_STRING
        tensor_shape {
          dim {
            size: 1
          }
        }
        string_val: "MobileNet/conv_ds_8/pw_batch_norm/beta"
      }
    }
  }
}
node {
  name: "save/RestoreV2_110/shape_and_slices"
  op: "Const"
  attr {
    key: "dtype"
    value {
      type: DT_STRING
    }
  }
  attr {
    key: "value"
    value {
      tensor {
        dtype: DT_STRING
        tensor_shape {
          dim {
            size: 1
          }
        }
        string_val: ""
      }
    }
  }
}
node {
  name: "save/RestoreV2_110"
  op: "RestoreV2"
  input: "save/Const"
  input: "save/RestoreV2_110/tensor_names"
  input: "save/RestoreV2_110/shape_and_slices"
  attr {
    key: "dtypes"
    value {
      list {
        type: DT_FLOAT
      }
    }
  }
}
node {
  name: "save/Assign_110"
  op: "Assign"
  input: "MobileNet/conv_ds_8/pw_batch_norm/beta"
  input: "save/RestoreV2_110"
  attr {
    key: "T"
    value {
      type: DT_FLOAT
    }
  }
  attr {
    key: "_class"
    value {
      list {
        s: "loc:@MobileNet/conv_ds_8/pw_batch_norm/beta"
      }
    }
  }
  attr {
    key: "use_locking"
    value {
      b: true
    }
  }
  attr {
    key: "validate_shape"
    value {
      b: true
    }
  }
}
node {
  name: "save/RestoreV2_111/tensor_names"
  op: "Const"
  attr {
    key: "dtype"
    value {
      type: DT_STRING
    }
  }
  attr {
    key: "value"
    value {
      tensor {
        dtype: DT_STRING
        tensor_shape {
          dim {
            size: 1
          }
        }
        string_val: "MobileNet/conv_ds_8/pw_batch_norm/gamma"
      }
    }
  }
}
node {
  name: "save/RestoreV2_111/shape_and_slices"
  op: "Const"
  attr {
    key: "dtype"
    value {
      type: DT_STRING
    }
  }
  attr {
    key: "value"
    value {
      tensor {
        dtype: DT_STRING
        tensor_shape {
          dim {
            size: 1
          }
        }
        string_val: ""
      }
    }
  }
}
node {
  name: "save/RestoreV2_111"
  op: "RestoreV2"
  input: "save/Const"
  input: "save/RestoreV2_111/tensor_names"
  input: "save/RestoreV2_111/shape_and_slices"
  attr {
    key: "dtypes"
    value {
      list {
        type: DT_FLOAT
      }
    }
  }
}
node {
  name: "save/Assign_111"
  op: "Assign"
  input: "MobileNet/conv_ds_8/pw_batch_norm/gamma"
  input: "save/RestoreV2_111"
  attr {
    key: "T"
    value {
      type: DT_FLOAT
    }
  }
  attr {
    key: "_class"
    value {
      list {
        s: "loc:@MobileNet/conv_ds_8/pw_batch_norm/gamma"
      }
    }
  }
  attr {
    key: "use_locking"
    value {
      b: true
    }
  }
  attr {
    key: "validate_shape"
    value {
      b: true
    }
  }
}
node {
  name: "save/RestoreV2_112/tensor_names"
  op: "Const"
  attr {
    key: "dtype"
    value {
      type: DT_STRING
    }
  }
  attr {
    key: "value"
    value {
      tensor {
        dtype: DT_STRING
        tensor_shape {
          dim {
            size: 1
          }
        }
        string_val: "MobileNet/conv_ds_8/pw_batch_norm/moving_mean"
      }
    }
  }
}
node {
  name: "save/RestoreV2_112/shape_and_slices"
  op: "Const"
  attr {
    key: "dtype"
    value {
      type: DT_STRING
    }
  }
  attr {
    key: "value"
    value {
      tensor {
        dtype: DT_STRING
        tensor_shape {
          dim {
            size: 1
          }
        }
        string_val: ""
      }
    }
  }
}
node {
  name: "save/RestoreV2_112"
  op: "RestoreV2"
  input: "save/Const"
  input: "save/RestoreV2_112/tensor_names"
  input: "save/RestoreV2_112/shape_and_slices"
  attr {
    key: "dtypes"
    value {
      list {
        type: DT_FLOAT
      }
    }
  }
}
node {
  name: "save/Assign_112"
  op: "Assign"
  input: "MobileNet/conv_ds_8/pw_batch_norm/moving_mean"
  input: "save/RestoreV2_112"
  attr {
    key: "T"
    value {
      type: DT_FLOAT
    }
  }
  attr {
    key: "_class"
    value {
      list {
        s: "loc:@MobileNet/conv_ds_8/pw_batch_norm/moving_mean"
      }
    }
  }
  attr {
    key: "use_locking"
    value {
      b: true
    }
  }
  attr {
    key: "validate_shape"
    value {
      b: true
    }
  }
}
node {
  name: "save/RestoreV2_113/tensor_names"
  op: "Const"
  attr {
    key: "dtype"
    value {
      type: DT_STRING
    }
  }
  attr {
    key: "value"
    value {
      tensor {
        dtype: DT_STRING
        tensor_shape {
          dim {
            size: 1
          }
        }
        string_val: "MobileNet/conv_ds_8/pw_batch_norm/moving_variance"
      }
    }
  }
}
node {
  name: "save/RestoreV2_113/shape_and_slices"
  op: "Const"
  attr {
    key: "dtype"
    value {
      type: DT_STRING
    }
  }
  attr {
    key: "value"
    value {
      tensor {
        dtype: DT_STRING
        tensor_shape {
          dim {
            size: 1
          }
        }
        string_val: ""
      }
    }
  }
}
node {
  name: "save/RestoreV2_113"
  op: "RestoreV2"
  input: "save/Const"
  input: "save/RestoreV2_113/tensor_names"
  input: "save/RestoreV2_113/shape_and_slices"
  attr {
    key: "dtypes"
    value {
      list {
        type: DT_FLOAT
      }
    }
  }
}
node {
  name: "save/Assign_113"
  op: "Assign"
  input: "MobileNet/conv_ds_8/pw_batch_norm/moving_variance"
  input: "save/RestoreV2_113"
  attr {
    key: "T"
    value {
      type: DT_FLOAT
    }
  }
  attr {
    key: "_class"
    value {
      list {
        s: "loc:@MobileNet/conv_ds_8/pw_batch_norm/moving_variance"
      }
    }
  }
  attr {
    key: "use_locking"
    value {
      b: true
    }
  }
  attr {
    key: "validate_shape"
    value {
      b: true
    }
  }
}
node {
  name: "save/RestoreV2_114/tensor_names"
  op: "Const"
  attr {
    key: "dtype"
    value {
      type: DT_STRING
    }
  }
  attr {
    key: "value"
    value {
      tensor {
        dtype: DT_STRING
        tensor_shape {
          dim {
            size: 1
          }
        }
        string_val: "MobileNet/fc_16/biases"
      }
    }
  }
}
node {
  name: "save/RestoreV2_114/shape_and_slices"
  op: "Const"
  attr {
    key: "dtype"
    value {
      type: DT_STRING
    }
  }
  attr {
    key: "value"
    value {
      tensor {
        dtype: DT_STRING
        tensor_shape {
          dim {
            size: 1
          }
        }
        string_val: ""
      }
    }
  }
}
node {
  name: "save/RestoreV2_114"
  op: "RestoreV2"
  input: "save/Const"
  input: "save/RestoreV2_114/tensor_names"
  input: "save/RestoreV2_114/shape_and_slices"
  attr {
    key: "dtypes"
    value {
      list {
        type: DT_FLOAT
      }
    }
  }
}
node {
  name: "save/Assign_114"
  op: "Assign"
  input: "MobileNet/fc_16/biases"
  input: "save/RestoreV2_114"
  attr {
    key: "T"
    value {
      type: DT_FLOAT
    }
  }
  attr {
    key: "_class"
    value {
      list {
        s: "loc:@MobileNet/fc_16/biases"
      }
    }
  }
  attr {
    key: "use_locking"
    value {
      b: true
    }
  }
  attr {
    key: "validate_shape"
    value {
      b: true
    }
  }
}
node {
  name: "save/RestoreV2_115/tensor_names"
  op: "Const"
  attr {
    key: "dtype"
    value {
      type: DT_STRING
    }
  }
  attr {
    key: "value"
    value {
      tensor {
        dtype: DT_STRING
        tensor_shape {
          dim {
            size: 1
          }
        }
        string_val: "MobileNet/fc_16/weights"
      }
    }
  }
}
node {
  name: "save/RestoreV2_115/shape_and_slices"
  op: "Const"
  attr {
    key: "dtype"
    value {
      type: DT_STRING
    }
  }
  attr {
    key: "value"
    value {
      tensor {
        dtype: DT_STRING
        tensor_shape {
          dim {
            size: 1
          }
        }
        string_val: ""
      }
    }
  }
}
node {
  name: "save/RestoreV2_115"
  op: "RestoreV2"
  input: "save/Const"
  input: "save/RestoreV2_115/tensor_names"
  input: "save/RestoreV2_115/shape_and_slices"
  attr {
    key: "dtypes"
    value {
      list {
        type: DT_FLOAT
      }
    }
  }
}
node {
  name: "save/Assign_115"
  op: "Assign"
  input: "MobileNet/fc_16/weights"
  input: "save/RestoreV2_115"
  attr {
    key: "T"
    value {
      type: DT_FLOAT
    }
  }
  attr {
    key: "_class"
    value {
      list {
        s: "loc:@MobileNet/fc_16/weights"
      }
    }
  }
  attr {
    key: "use_locking"
    value {
      b: true
    }
  }
  attr {
    key: "validate_shape"
    value {
      b: true
    }
  }
}
node {
  name: "save/RestoreV2_116/tensor_names"
  op: "Const"
  attr {
    key: "dtype"
    value {
      type: DT_STRING
    }
  }
  attr {
    key: "value"
    value {
      tensor {
        dtype: DT_STRING
        tensor_shape {
          dim {
            size: 1
          }
        }
        string_val: "global_step"
      }
    }
  }
}
node {
  name: "save/RestoreV2_116/shape_and_slices"
  op: "Const"
  attr {
    key: "dtype"
    value {
      type: DT_STRING
    }
  }
  attr {
    key: "value"
    value {
      tensor {
        dtype: DT_STRING
        tensor_shape {
          dim {
            size: 1
          }
        }
        string_val: ""
      }
    }
  }
}
node {
  name: "save/RestoreV2_116"
  op: "RestoreV2"
  input: "save/Const"
  input: "save/RestoreV2_116/tensor_names"
  input: "save/RestoreV2_116/shape_and_slices"
  attr {
    key: "dtypes"
    value {
      list {
        type: DT_INT64
      }
    }
  }
}
node {
  name: "save/Assign_116"
  op: "Assign"
  input: "global_step"
  input: "save/RestoreV2_116"
  attr {
    key: "T"
    value {
      type: DT_INT64
    }
  }
  attr {
    key: "_class"
    value {
      list {
        s: "loc:@global_step"
      }
    }
  }
  attr {
    key: "use_locking"
    value {
      b: true
    }
  }
  attr {
    key: "validate_shape"
    value {
      b: true
    }
  }
}
node {
  name: "save/RestoreV2_117/tensor_names"
  op: "Const"
  attr {
    key: "dtype"
    value {
      type: DT_STRING
    }
  }
  attr {
    key: "value"
    value {
      tensor {
        dtype: DT_STRING
        tensor_shape {
          dim {
            size: 1
          }
        }
        string_val: "pixel_cls/score_from_evaluation_360x640/MobileNet/conv_1/biases"
      }
    }
  }
}
node {
  name: "save/RestoreV2_117/shape_and_slices"
  op: "Const"
  attr {
    key: "dtype"
    value {
      type: DT_STRING
    }
  }
  attr {
    key: "value"
    value {
      tensor {
        dtype: DT_STRING
        tensor_shape {
          dim {
            size: 1
          }
        }
        string_val: ""
      }
    }
  }
}
node {
  name: "save/RestoreV2_117"
  op: "RestoreV2"
  input: "save/Const"
  input: "save/RestoreV2_117/tensor_names"
  input: "save/RestoreV2_117/shape_and_slices"
  attr {
    key: "dtypes"
    value {
      list {
        type: DT_FLOAT
      }
    }
  }
}
node {
  name: "save/Assign_117"
  op: "Assign"
  input: "pixel_cls/score_from_evaluation_360x640/MobileNet/conv_1/biases"
  input: "save/RestoreV2_117"
  attr {
    key: "T"
    value {
      type: DT_FLOAT
    }
  }
  attr {
    key: "_class"
    value {
      list {
        s: "loc:@pixel_cls/score_from_evaluation_360x640/MobileNet/conv_1/biases"
      }
    }
  }
  attr {
    key: "use_locking"
    value {
      b: true
    }
  }
  attr {
    key: "validate_shape"
    value {
      b: true
    }
  }
}
node {
  name: "save/RestoreV2_118/tensor_names"
  op: "Const"
  attr {
    key: "dtype"
    value {
      type: DT_STRING
    }
  }
  attr {
    key: "value"
    value {
      tensor {
        dtype: DT_STRING
        tensor_shape {
          dim {
            size: 1
          }
        }
        string_val: "pixel_cls/score_from_evaluation_360x640/MobileNet/conv_1/weights"
      }
    }
  }
}
node {
  name: "save/RestoreV2_118/shape_and_slices"
  op: "Const"
  attr {
    key: "dtype"
    value {
      type: DT_STRING
    }
  }
  attr {
    key: "value"
    value {
      tensor {
        dtype: DT_STRING
        tensor_shape {
          dim {
            size: 1
          }
        }
        string_val: ""
      }
    }
  }
}
node {
  name: "save/RestoreV2_118"
  op: "RestoreV2"
  input: "save/Const"
  input: "save/RestoreV2_118/tensor_names"
  input: "save/RestoreV2_118/shape_and_slices"
  attr {
    key: "dtypes"
    value {
      list {
        type: DT_FLOAT
      }
    }
  }
}
node {
  name: "save/Assign_118"
  op: "Assign"
  input: "pixel_cls/score_from_evaluation_360x640/MobileNet/conv_1/weights"
  input: "save/RestoreV2_118"
  attr {
    key: "T"
    value {
      type: DT_FLOAT
    }
  }
  attr {
    key: "_class"
    value {
      list {
        s: "loc:@pixel_cls/score_from_evaluation_360x640/MobileNet/conv_1/weights"
      }
    }
  }
  attr {
    key: "use_locking"
    value {
      b: true
    }
  }
  attr {
    key: "validate_shape"
    value {
      b: true
    }
  }
}
node {
  name: "save/RestoreV2_119/tensor_names"
  op: "Const"
  attr {
    key: "dtype"
    value {
      type: DT_STRING
    }
  }
  attr {
    key: "value"
    value {
      tensor {
        dtype: DT_STRING
        tensor_shape {
          dim {
            size: 1
          }
        }
        string_val: "pixel_cls/score_from_evaluation_360x640/MobileNet/conv_ds_14/pointwise_conv/biases"
      }
    }
  }
}
node {
  name: "save/RestoreV2_119/shape_and_slices"
  op: "Const"
  attr {
    key: "dtype"
    value {
      type: DT_STRING
    }
  }
  attr {
    key: "value"
    value {
      tensor {
        dtype: DT_STRING
        tensor_shape {
          dim {
            size: 1
          }
        }
        string_val: ""
      }
    }
  }
}
node {
  name: "save/RestoreV2_119"
  op: "RestoreV2"
  input: "save/Const"
  input: "save/RestoreV2_119/tensor_names"
  input: "save/RestoreV2_119/shape_and_slices"
  attr {
    key: "dtypes"
    value {
      list {
        type: DT_FLOAT
      }
    }
  }
}
node {
  name: "save/Assign_119"
  op: "Assign"
  input: "pixel_cls/score_from_evaluation_360x640/MobileNet/conv_ds_14/pointwise_conv/biases"
  input: "save/RestoreV2_119"
  attr {
    key: "T"
    value {
      type: DT_FLOAT
    }
  }
  attr {
    key: "_class"
    value {
      list {
        s: "loc:@pixel_cls/score_from_evaluation_360x640/MobileNet/conv_ds_14/pointwise_conv/biases"
      }
    }
  }
  attr {
    key: "use_locking"
    value {
      b: true
    }
  }
  attr {
    key: "validate_shape"
    value {
      b: true
    }
  }
}
node {
  name: "save/RestoreV2_120/tensor_names"
  op: "Const"
  attr {
    key: "dtype"
    value {
      type: DT_STRING
    }
  }
  attr {
    key: "value"
    value {
      tensor {
        dtype: DT_STRING
        tensor_shape {
          dim {
            size: 1
          }
        }
        string_val: "pixel_cls/score_from_evaluation_360x640/MobileNet/conv_ds_14/pointwise_conv/weights"
      }
    }
  }
}
node {
  name: "save/RestoreV2_120/shape_and_slices"
  op: "Const"
  attr {
    key: "dtype"
    value {
      type: DT_STRING
    }
  }
  attr {
    key: "value"
    value {
      tensor {
        dtype: DT_STRING
        tensor_shape {
          dim {
            size: 1
          }
        }
        string_val: ""
      }
    }
  }
}
node {
  name: "save/RestoreV2_120"
  op: "RestoreV2"
  input: "save/Const"
  input: "save/RestoreV2_120/tensor_names"
  input: "save/RestoreV2_120/shape_and_slices"
  attr {
    key: "dtypes"
    value {
      list {
        type: DT_FLOAT
      }
    }
  }
}
node {
  name: "save/Assign_120"
  op: "Assign"
  input: "pixel_cls/score_from_evaluation_360x640/MobileNet/conv_ds_14/pointwise_conv/weights"
  input: "save/RestoreV2_120"
  attr {
    key: "T"
    value {
      type: DT_FLOAT
    }
  }
  attr {
    key: "_class"
    value {
      list {
        s: "loc:@pixel_cls/score_from_evaluation_360x640/MobileNet/conv_ds_14/pointwise_conv/weights"
      }
    }
  }
  attr {
    key: "use_locking"
    value {
      b: true
    }
  }
  attr {
    key: "validate_shape"
    value {
      b: true
    }
  }
}
node {
  name: "save/RestoreV2_121/tensor_names"
  op: "Const"
  attr {
    key: "dtype"
    value {
      type: DT_STRING
    }
  }
  attr {
    key: "value"
    value {
      tensor {
        dtype: DT_STRING
        tensor_shape {
          dim {
            size: 1
          }
        }
        string_val: "pixel_cls/score_from_evaluation_360x640/MobileNet/conv_ds_5/pointwise_conv/biases"
      }
    }
  }
}
node {
  name: "save/RestoreV2_121/shape_and_slices"
  op: "Const"
  attr {
    key: "dtype"
    value {
      type: DT_STRING
    }
  }
  attr {
    key: "value"
    value {
      tensor {
        dtype: DT_STRING
        tensor_shape {
          dim {
            size: 1
          }
        }
        string_val: ""
      }
    }
  }
}
node {
  name: "save/RestoreV2_121"
  op: "RestoreV2"
  input: "save/Const"
  input: "save/RestoreV2_121/tensor_names"
  input: "save/RestoreV2_121/shape_and_slices"
  attr {
    key: "dtypes"
    value {
      list {
        type: DT_FLOAT
      }
    }
  }
}
node {
  name: "save/Assign_121"
  op: "Assign"
  input: "pixel_cls/score_from_evaluation_360x640/MobileNet/conv_ds_5/pointwise_conv/biases"
  input: "save/RestoreV2_121"
  attr {
    key: "T"
    value {
      type: DT_FLOAT
    }
  }
  attr {
    key: "_class"
    value {
      list {
        s: "loc:@pixel_cls/score_from_evaluation_360x640/MobileNet/conv_ds_5/pointwise_conv/biases"
      }
    }
  }
  attr {
    key: "use_locking"
    value {
      b: true
    }
  }
  attr {
    key: "validate_shape"
    value {
      b: true
    }
  }
}
node {
  name: "save/RestoreV2_122/tensor_names"
  op: "Const"
  attr {
    key: "dtype"
    value {
      type: DT_STRING
    }
  }
  attr {
    key: "value"
    value {
      tensor {
        dtype: DT_STRING
        tensor_shape {
          dim {
            size: 1
          }
        }
        string_val: "pixel_cls/score_from_evaluation_360x640/MobileNet/conv_ds_5/pointwise_conv/weights"
      }
    }
  }
}
node {
  name: "save/RestoreV2_122/shape_and_slices"
  op: "Const"
  attr {
    key: "dtype"
    value {
      type: DT_STRING
    }
  }
  attr {
    key: "value"
    value {
      tensor {
        dtype: DT_STRING
        tensor_shape {
          dim {
            size: 1
          }
        }
        string_val: ""
      }
    }
  }
}
node {
  name: "save/RestoreV2_122"
  op: "RestoreV2"
  input: "save/Const"
  input: "save/RestoreV2_122/tensor_names"
  input: "save/RestoreV2_122/shape_and_slices"
  attr {
    key: "dtypes"
    value {
      list {
        type: DT_FLOAT
      }
    }
  }
}
node {
  name: "save/Assign_122"
  op: "Assign"
  input: "pixel_cls/score_from_evaluation_360x640/MobileNet/conv_ds_5/pointwise_conv/weights"
  input: "save/RestoreV2_122"
  attr {
    key: "T"
    value {
      type: DT_FLOAT
    }
  }
  attr {
    key: "_class"
    value {
      list {
        s: "loc:@pixel_cls/score_from_evaluation_360x640/MobileNet/conv_ds_5/pointwise_conv/weights"
      }
    }
  }
  attr {
    key: "use_locking"
    value {
      b: true
    }
  }
  attr {
    key: "validate_shape"
    value {
      b: true
    }
  }
}
node {
  name: "save/RestoreV2_123/tensor_names"
  op: "Const"
  attr {
    key: "dtype"
    value {
      type: DT_STRING
    }
  }
  attr {
    key: "value"
    value {
      tensor {
        dtype: DT_STRING
        tensor_shape {
          dim {
            size: 1
          }
        }
        string_val: "pixel_cls/score_from_evaluation_360x640/MobileNet/conv_ds_8/pointwise_conv/biases"
      }
    }
  }
}
node {
  name: "save/RestoreV2_123/shape_and_slices"
  op: "Const"
  attr {
    key: "dtype"
    value {
      type: DT_STRING
    }
  }
  attr {
    key: "value"
    value {
      tensor {
        dtype: DT_STRING
        tensor_shape {
          dim {
            size: 1
          }
        }
        string_val: ""
      }
    }
  }
}
node {
  name: "save/RestoreV2_123"
  op: "RestoreV2"
  input: "save/Const"
  input: "save/RestoreV2_123/tensor_names"
  input: "save/RestoreV2_123/shape_and_slices"
  attr {
    key: "dtypes"
    value {
      list {
        type: DT_FLOAT
      }
    }
  }
}
node {
  name: "save/Assign_123"
  op: "Assign"
  input: "pixel_cls/score_from_evaluation_360x640/MobileNet/conv_ds_8/pointwise_conv/biases"
  input: "save/RestoreV2_123"
  attr {
    key: "T"
    value {
      type: DT_FLOAT
    }
  }
  attr {
    key: "_class"
    value {
      list {
        s: "loc:@pixel_cls/score_from_evaluation_360x640/MobileNet/conv_ds_8/pointwise_conv/biases"
      }
    }
  }
  attr {
    key: "use_locking"
    value {
      b: true
    }
  }
  attr {
    key: "validate_shape"
    value {
      b: true
    }
  }
}
node {
  name: "save/RestoreV2_124/tensor_names"
  op: "Const"
  attr {
    key: "dtype"
    value {
      type: DT_STRING
    }
  }
  attr {
    key: "value"
    value {
      tensor {
        dtype: DT_STRING
        tensor_shape {
          dim {
            size: 1
          }
        }
        string_val: "pixel_cls/score_from_evaluation_360x640/MobileNet/conv_ds_8/pointwise_conv/weights"
      }
    }
  }
}
node {
  name: "save/RestoreV2_124/shape_and_slices"
  op: "Const"
  attr {
    key: "dtype"
    value {
      type: DT_STRING
    }
  }
  attr {
    key: "value"
    value {
      tensor {
        dtype: DT_STRING
        tensor_shape {
          dim {
            size: 1
          }
        }
        string_val: ""
      }
    }
  }
}
node {
  name: "save/RestoreV2_124"
  op: "RestoreV2"
  input: "save/Const"
  input: "save/RestoreV2_124/tensor_names"
  input: "save/RestoreV2_124/shape_and_slices"
  attr {
    key: "dtypes"
    value {
      list {
        type: DT_FLOAT
      }
    }
  }
}
node {
  name: "save/Assign_124"
  op: "Assign"
  input: "pixel_cls/score_from_evaluation_360x640/MobileNet/conv_ds_8/pointwise_conv/weights"
  input: "save/RestoreV2_124"
  attr {
    key: "T"
    value {
      type: DT_FLOAT
    }
  }
  attr {
    key: "_class"
    value {
      list {
        s: "loc:@pixel_cls/score_from_evaluation_360x640/MobileNet/conv_ds_8/pointwise_conv/weights"
      }
    }
  }
  attr {
    key: "use_locking"
    value {
      b: true
    }
  }
  attr {
    key: "validate_shape"
    value {
      b: true
    }
  }
}
node {
  name: "save/RestoreV2_125/tensor_names"
  op: "Const"
  attr {
    key: "dtype"
    value {
      type: DT_STRING
    }
  }
  attr {
    key: "value"
    value {
      tensor {
        dtype: DT_STRING
        tensor_shape {
          dim {
            size: 1
          }
        }
        string_val: "pixel_link/score_from_evaluation_360x640/MobileNet/conv_1/biases"
      }
    }
  }
}
node {
  name: "save/RestoreV2_125/shape_and_slices"
  op: "Const"
  attr {
    key: "dtype"
    value {
      type: DT_STRING
    }
  }
  attr {
    key: "value"
    value {
      tensor {
        dtype: DT_STRING
        tensor_shape {
          dim {
            size: 1
          }
        }
        string_val: ""
      }
    }
  }
}
node {
  name: "save/RestoreV2_125"
  op: "RestoreV2"
  input: "save/Const"
  input: "save/RestoreV2_125/tensor_names"
  input: "save/RestoreV2_125/shape_and_slices"
  attr {
    key: "dtypes"
    value {
      list {
        type: DT_FLOAT
      }
    }
  }
}
node {
  name: "save/Assign_125"
  op: "Assign"
  input: "pixel_link/score_from_evaluation_360x640/MobileNet/conv_1/biases"
  input: "save/RestoreV2_125"
  attr {
    key: "T"
    value {
      type: DT_FLOAT
    }
  }
  attr {
    key: "_class"
    value {
      list {
        s: "loc:@pixel_link/score_from_evaluation_360x640/MobileNet/conv_1/biases"
      }
    }
  }
  attr {
    key: "use_locking"
    value {
      b: true
    }
  }
  attr {
    key: "validate_shape"
    value {
      b: true
    }
  }
}
node {
  name: "save/RestoreV2_126/tensor_names"
  op: "Const"
  attr {
    key: "dtype"
    value {
      type: DT_STRING
    }
  }
  attr {
    key: "value"
    value {
      tensor {
        dtype: DT_STRING
        tensor_shape {
          dim {
            size: 1
          }
        }
        string_val: "pixel_link/score_from_evaluation_360x640/MobileNet/conv_1/weights"
      }
    }
  }
}
node {
  name: "save/RestoreV2_126/shape_and_slices"
  op: "Const"
  attr {
    key: "dtype"
    value {
      type: DT_STRING
    }
  }
  attr {
    key: "value"
    value {
      tensor {
        dtype: DT_STRING
        tensor_shape {
          dim {
            size: 1
          }
        }
        string_val: ""
      }
    }
  }
}
node {
  name: "save/RestoreV2_126"
  op: "RestoreV2"
  input: "save/Const"
  input: "save/RestoreV2_126/tensor_names"
  input: "save/RestoreV2_126/shape_and_slices"
  attr {
    key: "dtypes"
    value {
      list {
        type: DT_FLOAT
      }
    }
  }
}
node {
  name: "save/Assign_126"
  op: "Assign"
  input: "pixel_link/score_from_evaluation_360x640/MobileNet/conv_1/weights"
  input: "save/RestoreV2_126"
  attr {
    key: "T"
    value {
      type: DT_FLOAT
    }
  }
  attr {
    key: "_class"
    value {
      list {
        s: "loc:@pixel_link/score_from_evaluation_360x640/MobileNet/conv_1/weights"
      }
    }
  }
  attr {
    key: "use_locking"
    value {
      b: true
    }
  }
  attr {
    key: "validate_shape"
    value {
      b: true
    }
  }
}
node {
  name: "save/RestoreV2_127/tensor_names"
  op: "Const"
  attr {
    key: "dtype"
    value {
      type: DT_STRING
    }
  }
  attr {
    key: "value"
    value {
      tensor {
        dtype: DT_STRING
        tensor_shape {
          dim {
            size: 1
          }
        }
        string_val: "pixel_link/score_from_evaluation_360x640/MobileNet/conv_ds_14/pointwise_conv/biases"
      }
    }
  }
}
node {
  name: "save/RestoreV2_127/shape_and_slices"
  op: "Const"
  attr {
    key: "dtype"
    value {
      type: DT_STRING
    }
  }
  attr {
    key: "value"
    value {
      tensor {
        dtype: DT_STRING
        tensor_shape {
          dim {
            size: 1
          }
        }
        string_val: ""
      }
    }
  }
}
node {
  name: "save/RestoreV2_127"
  op: "RestoreV2"
  input: "save/Const"
  input: "save/RestoreV2_127/tensor_names"
  input: "save/RestoreV2_127/shape_and_slices"
  attr {
    key: "dtypes"
    value {
      list {
        type: DT_FLOAT
      }
    }
  }
}
node {
  name: "save/Assign_127"
  op: "Assign"
  input: "pixel_link/score_from_evaluation_360x640/MobileNet/conv_ds_14/pointwise_conv/biases"
  input: "save/RestoreV2_127"
  attr {
    key: "T"
    value {
      type: DT_FLOAT
    }
  }
  attr {
    key: "_class"
    value {
      list {
        s: "loc:@pixel_link/score_from_evaluation_360x640/MobileNet/conv_ds_14/pointwise_conv/biases"
      }
    }
  }
  attr {
    key: "use_locking"
    value {
      b: true
    }
  }
  attr {
    key: "validate_shape"
    value {
      b: true
    }
  }
}
node {
  name: "save/RestoreV2_128/tensor_names"
  op: "Const"
  attr {
    key: "dtype"
    value {
      type: DT_STRING
    }
  }
  attr {
    key: "value"
    value {
      tensor {
        dtype: DT_STRING
        tensor_shape {
          dim {
            size: 1
          }
        }
        string_val: "pixel_link/score_from_evaluation_360x640/MobileNet/conv_ds_14/pointwise_conv/weights"
      }
    }
  }
}
node {
  name: "save/RestoreV2_128/shape_and_slices"
  op: "Const"
  attr {
    key: "dtype"
    value {
      type: DT_STRING
    }
  }
  attr {
    key: "value"
    value {
      tensor {
        dtype: DT_STRING
        tensor_shape {
          dim {
            size: 1
          }
        }
        string_val: ""
      }
    }
  }
}
node {
  name: "save/RestoreV2_128"
  op: "RestoreV2"
  input: "save/Const"
  input: "save/RestoreV2_128/tensor_names"
  input: "save/RestoreV2_128/shape_and_slices"
  attr {
    key: "dtypes"
    value {
      list {
        type: DT_FLOAT
      }
    }
  }
}
node {
  name: "save/Assign_128"
  op: "Assign"
  input: "pixel_link/score_from_evaluation_360x640/MobileNet/conv_ds_14/pointwise_conv/weights"
  input: "save/RestoreV2_128"
  attr {
    key: "T"
    value {
      type: DT_FLOAT
    }
  }
  attr {
    key: "_class"
    value {
      list {
        s: "loc:@pixel_link/score_from_evaluation_360x640/MobileNet/conv_ds_14/pointwise_conv/weights"
      }
    }
  }
  attr {
    key: "use_locking"
    value {
      b: true
    }
  }
  attr {
    key: "validate_shape"
    value {
      b: true
    }
  }
}
node {
  name: "save/RestoreV2_129/tensor_names"
  op: "Const"
  attr {
    key: "dtype"
    value {
      type: DT_STRING
    }
  }
  attr {
    key: "value"
    value {
      tensor {
        dtype: DT_STRING
        tensor_shape {
          dim {
            size: 1
          }
        }
        string_val: "pixel_link/score_from_evaluation_360x640/MobileNet/conv_ds_5/pointwise_conv/biases"
      }
    }
  }
}
node {
  name: "save/RestoreV2_129/shape_and_slices"
  op: "Const"
  attr {
    key: "dtype"
    value {
      type: DT_STRING
    }
  }
  attr {
    key: "value"
    value {
      tensor {
        dtype: DT_STRING
        tensor_shape {
          dim {
            size: 1
          }
        }
        string_val: ""
      }
    }
  }
}
node {
  name: "save/RestoreV2_129"
  op: "RestoreV2"
  input: "save/Const"
  input: "save/RestoreV2_129/tensor_names"
  input: "save/RestoreV2_129/shape_and_slices"
  attr {
    key: "dtypes"
    value {
      list {
        type: DT_FLOAT
      }
    }
  }
}
node {
  name: "save/Assign_129"
  op: "Assign"
  input: "pixel_link/score_from_evaluation_360x640/MobileNet/conv_ds_5/pointwise_conv/biases"
  input: "save/RestoreV2_129"
  attr {
    key: "T"
    value {
      type: DT_FLOAT
    }
  }
  attr {
    key: "_class"
    value {
      list {
        s: "loc:@pixel_link/score_from_evaluation_360x640/MobileNet/conv_ds_5/pointwise_conv/biases"
      }
    }
  }
  attr {
    key: "use_locking"
    value {
      b: true
    }
  }
  attr {
    key: "validate_shape"
    value {
      b: true
    }
  }
}
node {
  name: "save/RestoreV2_130/tensor_names"
  op: "Const"
  attr {
    key: "dtype"
    value {
      type: DT_STRING
    }
  }
  attr {
    key: "value"
    value {
      tensor {
        dtype: DT_STRING
        tensor_shape {
          dim {
            size: 1
          }
        }
        string_val: "pixel_link/score_from_evaluation_360x640/MobileNet/conv_ds_5/pointwise_conv/weights"
      }
    }
  }
}
node {
  name: "save/RestoreV2_130/shape_and_slices"
  op: "Const"
  attr {
    key: "dtype"
    value {
      type: DT_STRING
    }
  }
  attr {
    key: "value"
    value {
      tensor {
        dtype: DT_STRING
        tensor_shape {
          dim {
            size: 1
          }
        }
        string_val: ""
      }
    }
  }
}
node {
  name: "save/RestoreV2_130"
  op: "RestoreV2"
  input: "save/Const"
  input: "save/RestoreV2_130/tensor_names"
  input: "save/RestoreV2_130/shape_and_slices"
  attr {
    key: "dtypes"
    value {
      list {
        type: DT_FLOAT
      }
    }
  }
}
node {
  name: "save/Assign_130"
  op: "Assign"
  input: "pixel_link/score_from_evaluation_360x640/MobileNet/conv_ds_5/pointwise_conv/weights"
  input: "save/RestoreV2_130"
  attr {
    key: "T"
    value {
      type: DT_FLOAT
    }
  }
  attr {
    key: "_class"
    value {
      list {
        s: "loc:@pixel_link/score_from_evaluation_360x640/MobileNet/conv_ds_5/pointwise_conv/weights"
      }
    }
  }
  attr {
    key: "use_locking"
    value {
      b: true
    }
  }
  attr {
    key: "validate_shape"
    value {
      b: true
    }
  }
}
node {
  name: "save/RestoreV2_131/tensor_names"
  op: "Const"
  attr {
    key: "dtype"
    value {
      type: DT_STRING
    }
  }
  attr {
    key: "value"
    value {
      tensor {
        dtype: DT_STRING
        tensor_shape {
          dim {
            size: 1
          }
        }
        string_val: "pixel_link/score_from_evaluation_360x640/MobileNet/conv_ds_8/pointwise_conv/biases"
      }
    }
  }
}
node {
  name: "save/RestoreV2_131/shape_and_slices"
  op: "Const"
  attr {
    key: "dtype"
    value {
      type: DT_STRING
    }
  }
  attr {
    key: "value"
    value {
      tensor {
        dtype: DT_STRING
        tensor_shape {
          dim {
            size: 1
          }
        }
        string_val: ""
      }
    }
  }
}
node {
  name: "save/RestoreV2_131"
  op: "RestoreV2"
  input: "save/Const"
  input: "save/RestoreV2_131/tensor_names"
  input: "save/RestoreV2_131/shape_and_slices"
  attr {
    key: "dtypes"
    value {
      list {
        type: DT_FLOAT
      }
    }
  }
}
node {
  name: "save/Assign_131"
  op: "Assign"
  input: "pixel_link/score_from_evaluation_360x640/MobileNet/conv_ds_8/pointwise_conv/biases"
  input: "save/RestoreV2_131"
  attr {
    key: "T"
    value {
      type: DT_FLOAT
    }
  }
  attr {
    key: "_class"
    value {
      list {
        s: "loc:@pixel_link/score_from_evaluation_360x640/MobileNet/conv_ds_8/pointwise_conv/biases"
      }
    }
  }
  attr {
    key: "use_locking"
    value {
      b: true
    }
  }
  attr {
    key: "validate_shape"
    value {
      b: true
    }
  }
}
node {
  name: "save/RestoreV2_132/tensor_names"
  op: "Const"
  attr {
    key: "dtype"
    value {
      type: DT_STRING
    }
  }
  attr {
    key: "value"
    value {
      tensor {
        dtype: DT_STRING
        tensor_shape {
          dim {
            size: 1
          }
        }
        string_val: "pixel_link/score_from_evaluation_360x640/MobileNet/conv_ds_8/pointwise_conv/weights"
      }
    }
  }
}
node {
  name: "save/RestoreV2_132/shape_and_slices"
  op: "Const"
  attr {
    key: "dtype"
    value {
      type: DT_STRING
    }
  }
  attr {
    key: "value"
    value {
      tensor {
        dtype: DT_STRING
        tensor_shape {
          dim {
            size: 1
          }
        }
        string_val: ""
      }
    }
  }
}
node {
  name: "save/RestoreV2_132"
  op: "RestoreV2"
  input: "save/Const"
  input: "save/RestoreV2_132/tensor_names"
  input: "save/RestoreV2_132/shape_and_slices"
  attr {
    key: "dtypes"
    value {
      list {
        type: DT_FLOAT
      }
    }
  }
}
node {
  name: "save/Assign_132"
  op: "Assign"
  input: "pixel_link/score_from_evaluation_360x640/MobileNet/conv_ds_8/pointwise_conv/weights"
  input: "save/RestoreV2_132"
  attr {
    key: "T"
    value {
      type: DT_FLOAT
    }
  }
  attr {
    key: "_class"
    value {
      list {
        s: "loc:@pixel_link/score_from_evaluation_360x640/MobileNet/conv_ds_8/pointwise_conv/weights"
      }
    }
  }
  attr {
    key: "use_locking"
    value {
      b: true
    }
  }
  attr {
    key: "validate_shape"
    value {
      b: true
    }
  }
}
node {
  name: "save/restore_all"
  op: "NoOp"
  input: "^save/Assign"
  input: "^save/Assign_1"
  input: "^save/Assign_2"
  input: "^save/Assign_3"
  input: "^save/Assign_4"
  input: "^save/Assign_5"
  input: "^save/Assign_6"
  input: "^save/Assign_7"
  input: "^save/Assign_8"
  input: "^save/Assign_9"
  input: "^save/Assign_10"
  input: "^save/Assign_11"
  input: "^save/Assign_12"
  input: "^save/Assign_13"
  input: "^save/Assign_14"
  input: "^save/Assign_15"
  input: "^save/Assign_16"
  input: "^save/Assign_17"
  input: "^save/Assign_18"
  input: "^save/Assign_19"
  input: "^save/Assign_20"
  input: "^save/Assign_21"
  input: "^save/Assign_22"
  input: "^save/Assign_23"
  input: "^save/Assign_24"
  input: "^save/Assign_25"
  input: "^save/Assign_26"
  input: "^save/Assign_27"
  input: "^save/Assign_28"
  input: "^save/Assign_29"
  input: "^save/Assign_30"
  input: "^save/Assign_31"
  input: "^save/Assign_32"
  input: "^save/Assign_33"
  input: "^save/Assign_34"
  input: "^save/Assign_35"
  input: "^save/Assign_36"
  input: "^save/Assign_37"
  input: "^save/Assign_38"
  input: "^save/Assign_39"
  input: "^save/Assign_40"
  input: "^save/Assign_41"
  input: "^save/Assign_42"
  input: "^save/Assign_43"
  input: "^save/Assign_44"
  input: "^save/Assign_45"
  input: "^save/Assign_46"
  input: "^save/Assign_47"
  input: "^save/Assign_48"
  input: "^save/Assign_49"
  input: "^save/Assign_50"
  input: "^save/Assign_51"
  input: "^save/Assign_52"
  input: "^save/Assign_53"
  input: "^save/Assign_54"
  input: "^save/Assign_55"
  input: "^save/Assign_56"
  input: "^save/Assign_57"
  input: "^save/Assign_58"
  input: "^save/Assign_59"
  input: "^save/Assign_60"
  input: "^save/Assign_61"
  input: "^save/Assign_62"
  input: "^save/Assign_63"
  input: "^save/Assign_64"
  input: "^save/Assign_65"
  input: "^save/Assign_66"
  input: "^save/Assign_67"
  input: "^save/Assign_68"
  input: "^save/Assign_69"
  input: "^save/Assign_70"
  input: "^save/Assign_71"
  input: "^save/Assign_72"
  input: "^save/Assign_73"
  input: "^save/Assign_74"
  input: "^save/Assign_75"
  input: "^save/Assign_76"
  input: "^save/Assign_77"
  input: "^save/Assign_78"
  input: "^save/Assign_79"
  input: "^save/Assign_80"
  input: "^save/Assign_81"
  input: "^save/Assign_82"
  input: "^save/Assign_83"
  input: "^save/Assign_84"
  input: "^save/Assign_85"
  input: "^save/Assign_86"
  input: "^save/Assign_87"
  input: "^save/Assign_88"
  input: "^save/Assign_89"
  input: "^save/Assign_90"
  input: "^save/Assign_91"
  input: "^save/Assign_92"
  input: "^save/Assign_93"
  input: "^save/Assign_94"
  input: "^save/Assign_95"
  input: "^save/Assign_96"
  input: "^save/Assign_97"
  input: "^save/Assign_98"
  input: "^save/Assign_99"
  input: "^save/Assign_100"
  input: "^save/Assign_101"
  input: "^save/Assign_102"
  input: "^save/Assign_103"
  input: "^save/Assign_104"
  input: "^save/Assign_105"
  input: "^save/Assign_106"
  input: "^save/Assign_107"
  input: "^save/Assign_108"
  input: "^save/Assign_109"
  input: "^save/Assign_110"
  input: "^save/Assign_111"
  input: "^save/Assign_112"
  input: "^save/Assign_113"
  input: "^save/Assign_114"
  input: "^save/Assign_115"
  input: "^save/Assign_116"
  input: "^save/Assign_117"
  input: "^save/Assign_118"
  input: "^save/Assign_119"
  input: "^save/Assign_120"
  input: "^save/Assign_121"
  input: "^save/Assign_122"
  input: "^save/Assign_123"
  input: "^save/Assign_124"
  input: "^save/Assign_125"
  input: "^save/Assign_126"
  input: "^save/Assign_127"
  input: "^save/Assign_128"
  input: "^save/Assign_129"
  input: "^save/Assign_130"
  input: "^save/Assign_131"
  input: "^save/Assign_132"
}
node {
  name: "init"
  op: "NoOp"
  input: "^global_step/Assign"
  input: "^MobileNet/conv_1/weights/Assign"
  input: "^MobileNet/conv_1/biases/Assign"
  input: "^MobileNet/conv_1/batch_norm/beta/Assign"
  input: "^MobileNet/conv_1/batch_norm/gamma/Assign"
  input: "^MobileNet/conv_1/batch_norm/moving_mean/Assign"
  input: "^MobileNet/conv_1/batch_norm/moving_variance/Assign"
  input: "^MobileNet/conv_ds_2/depthwise_conv/depthwise_weights/Assign"
  input: "^MobileNet/conv_ds_2/depthwise_conv/biases/Assign"
  input: "^MobileNet/conv_ds_2/dw_batch_norm/beta/Assign"
  input: "^MobileNet/conv_ds_2/dw_batch_norm/gamma/Assign"
  input: "^MobileNet/conv_ds_2/dw_batch_norm/moving_mean/Assign"
  input: "^MobileNet/conv_ds_2/dw_batch_norm/moving_variance/Assign"
  input: "^MobileNet/conv_ds_2/pointwise_conv/weights/Assign"
  input: "^MobileNet/conv_ds_2/pointwise_conv/biases/Assign"
  input: "^MobileNet/conv_ds_2/pw_batch_norm/beta/Assign"
  input: "^MobileNet/conv_ds_2/pw_batch_norm/gamma/Assign"
  input: "^MobileNet/conv_ds_2/pw_batch_norm/moving_mean/Assign"
  input: "^MobileNet/conv_ds_2/pw_batch_norm/moving_variance/Assign"
  input: "^MobileNet/conv_ds_3/depthwise_conv/depthwise_weights/Assign"
  input: "^MobileNet/conv_ds_3/depthwise_conv/biases/Assign"
  input: "^MobileNet/conv_ds_3/dw_batch_norm/beta/Assign"
  input: "^MobileNet/conv_ds_3/dw_batch_norm/gamma/Assign"
  input: "^MobileNet/conv_ds_3/dw_batch_norm/moving_mean/Assign"
  input: "^MobileNet/conv_ds_3/dw_batch_norm/moving_variance/Assign"
  input: "^MobileNet/conv_ds_3/pointwise_conv/weights/Assign"
  input: "^MobileNet/conv_ds_3/pointwise_conv/biases/Assign"
  input: "^MobileNet/conv_ds_3/pw_batch_norm/beta/Assign"
  input: "^MobileNet/conv_ds_3/pw_batch_norm/gamma/Assign"
  input: "^MobileNet/conv_ds_3/pw_batch_norm/moving_mean/Assign"
  input: "^MobileNet/conv_ds_3/pw_batch_norm/moving_variance/Assign"
  input: "^MobileNet/conv_ds_4/depthwise_conv/depthwise_weights/Assign"
  input: "^MobileNet/conv_ds_4/depthwise_conv/biases/Assign"
  input: "^MobileNet/conv_ds_4/dw_batch_norm/beta/Assign"
  input: "^MobileNet/conv_ds_4/dw_batch_norm/gamma/Assign"
  input: "^MobileNet/conv_ds_4/dw_batch_norm/moving_mean/Assign"
  input: "^MobileNet/conv_ds_4/dw_batch_norm/moving_variance/Assign"
  input: "^MobileNet/conv_ds_4/pointwise_conv/weights/Assign"
  input: "^MobileNet/conv_ds_4/pointwise_conv/biases/Assign"
  input: "^MobileNet/conv_ds_4/pw_batch_norm/beta/Assign"
  input: "^MobileNet/conv_ds_4/pw_batch_norm/gamma/Assign"
  input: "^MobileNet/conv_ds_4/pw_batch_norm/moving_mean/Assign"
  input: "^MobileNet/conv_ds_4/pw_batch_norm/moving_variance/Assign"
  input: "^MobileNet/conv_ds_5/depthwise_conv/depthwise_weights/Assign"
  input: "^MobileNet/conv_ds_5/depthwise_conv/biases/Assign"
  input: "^MobileNet/conv_ds_5/dw_batch_norm/beta/Assign"
  input: "^MobileNet/conv_ds_5/dw_batch_norm/gamma/Assign"
  input: "^MobileNet/conv_ds_5/dw_batch_norm/moving_mean/Assign"
  input: "^MobileNet/conv_ds_5/dw_batch_norm/moving_variance/Assign"
  input: "^MobileNet/conv_ds_5/pointwise_conv/weights/Assign"
  input: "^MobileNet/conv_ds_5/pointwise_conv/biases/Assign"
  input: "^MobileNet/conv_ds_5/pw_batch_norm/beta/Assign"
  input: "^MobileNet/conv_ds_5/pw_batch_norm/gamma/Assign"
  input: "^MobileNet/conv_ds_5/pw_batch_norm/moving_mean/Assign"
  input: "^MobileNet/conv_ds_5/pw_batch_norm/moving_variance/Assign"
  input: "^MobileNet/conv_ds_6/depthwise_conv/depthwise_weights/Assign"
  input: "^MobileNet/conv_ds_6/depthwise_conv/biases/Assign"
  input: "^MobileNet/conv_ds_6/dw_batch_norm/beta/Assign"
  input: "^MobileNet/conv_ds_6/dw_batch_norm/gamma/Assign"
  input: "^MobileNet/conv_ds_6/dw_batch_norm/moving_mean/Assign"
  input: "^MobileNet/conv_ds_6/dw_batch_norm/moving_variance/Assign"
  input: "^MobileNet/conv_ds_6/pointwise_conv/weights/Assign"
  input: "^MobileNet/conv_ds_6/pointwise_conv/biases/Assign"
  input: "^MobileNet/conv_ds_6/pw_batch_norm/beta/Assign"
  input: "^MobileNet/conv_ds_6/pw_batch_norm/gamma/Assign"
  input: "^MobileNet/conv_ds_6/pw_batch_norm/moving_mean/Assign"
  input: "^MobileNet/conv_ds_6/pw_batch_norm/moving_variance/Assign"
  input: "^MobileNet/conv_ds_7/depthwise_conv/depthwise_weights/Assign"
  input: "^MobileNet/conv_ds_7/depthwise_conv/biases/Assign"
  input: "^MobileNet/conv_ds_7/dw_batch_norm/beta/Assign"
  input: "^MobileNet/conv_ds_7/dw_batch_norm/gamma/Assign"
  input: "^MobileNet/conv_ds_7/dw_batch_norm/moving_mean/Assign"
  input: "^MobileNet/conv_ds_7/dw_batch_norm/moving_variance/Assign"
  input: "^MobileNet/conv_ds_7/pointwise_conv/weights/Assign"
  input: "^MobileNet/conv_ds_7/pointwise_conv/biases/Assign"
  input: "^MobileNet/conv_ds_7/pw_batch_norm/beta/Assign"
  input: "^MobileNet/conv_ds_7/pw_batch_norm/gamma/Assign"
  input: "^MobileNet/conv_ds_7/pw_batch_norm/moving_mean/Assign"
  input: "^MobileNet/conv_ds_7/pw_batch_norm/moving_variance/Assign"
  input: "^MobileNet/conv_ds_8/depthwise_conv/depthwise_weights/Assign"
  input: "^MobileNet/conv_ds_8/depthwise_conv/biases/Assign"
  input: "^MobileNet/conv_ds_8/dw_batch_norm/beta/Assign"
  input: "^MobileNet/conv_ds_8/dw_batch_norm/gamma/Assign"
  input: "^MobileNet/conv_ds_8/dw_batch_norm/moving_mean/Assign"
  input: "^MobileNet/conv_ds_8/dw_batch_norm/moving_variance/Assign"
  input: "^MobileNet/conv_ds_8/pointwise_conv/weights/Assign"
  input: "^MobileNet/conv_ds_8/pointwise_conv/biases/Assign"
  input: "^MobileNet/conv_ds_8/pw_batch_norm/beta/Assign"
  input: "^MobileNet/conv_ds_8/pw_batch_norm/gamma/Assign"
  input: "^MobileNet/conv_ds_8/pw_batch_norm/moving_mean/Assign"
  input: "^MobileNet/conv_ds_8/pw_batch_norm/moving_variance/Assign"
  input: "^MobileNet/conv_ds_13/depthwise_conv/depthwise_weights/Assign"
  input: "^MobileNet/conv_ds_13/depthwise_conv/biases/Assign"
  input: "^MobileNet/conv_ds_13/dw_batch_norm/beta/Assign"
  input: "^MobileNet/conv_ds_13/dw_batch_norm/gamma/Assign"
  input: "^MobileNet/conv_ds_13/dw_batch_norm/moving_mean/Assign"
  input: "^MobileNet/conv_ds_13/dw_batch_norm/moving_variance/Assign"
  input: "^MobileNet/conv_ds_13/pointwise_conv/weights/Assign"
  input: "^MobileNet/conv_ds_13/pointwise_conv/biases/Assign"
  input: "^MobileNet/conv_ds_13/pw_batch_norm/beta/Assign"
  input: "^MobileNet/conv_ds_13/pw_batch_norm/gamma/Assign"
  input: "^MobileNet/conv_ds_13/pw_batch_norm/moving_mean/Assign"
  input: "^MobileNet/conv_ds_13/pw_batch_norm/moving_variance/Assign"
  input: "^MobileNet/conv_ds_14/depthwise_conv/depthwise_weights/Assign"
  input: "^MobileNet/conv_ds_14/depthwise_conv/biases/Assign"
  input: "^MobileNet/conv_ds_14/dw_batch_norm/beta/Assign"
  input: "^MobileNet/conv_ds_14/dw_batch_norm/gamma/Assign"
  input: "^MobileNet/conv_ds_14/dw_batch_norm/moving_mean/Assign"
  input: "^MobileNet/conv_ds_14/dw_batch_norm/moving_variance/Assign"
  input: "^MobileNet/conv_ds_14/pointwise_conv/weights/Assign"
  input: "^MobileNet/conv_ds_14/pointwise_conv/biases/Assign"
  input: "^MobileNet/conv_ds_14/pw_batch_norm/beta/Assign"
  input: "^MobileNet/conv_ds_14/pw_batch_norm/gamma/Assign"
  input: "^MobileNet/conv_ds_14/pw_batch_norm/moving_mean/Assign"
  input: "^MobileNet/conv_ds_14/pw_batch_norm/moving_variance/Assign"
  input: "^MobileNet/fc_16/weights/Assign"
  input: "^MobileNet/fc_16/biases/Assign"
  input: "^pixel_cls/score_from_evaluation_360x640/MobileNet/conv_ds_14/pointwise_conv/weights/Assign"
  input: "^pixel_cls/score_from_evaluation_360x640/MobileNet/conv_ds_14/pointwise_conv/biases/Assign"
  input: "^pixel_cls/score_from_evaluation_360x640/MobileNet/conv_ds_8/pointwise_conv/weights/Assign"
  input: "^pixel_cls/score_from_evaluation_360x640/MobileNet/conv_ds_8/pointwise_conv/biases/Assign"
  input: "^pixel_cls/score_from_evaluation_360x640/MobileNet/conv_ds_5/pointwise_conv/weights/Assign"
  input: "^pixel_cls/score_from_evaluation_360x640/MobileNet/conv_ds_5/pointwise_conv/biases/Assign"
  input: "^pixel_cls/score_from_evaluation_360x640/MobileNet/conv_1/weights/Assign"
  input: "^pixel_cls/score_from_evaluation_360x640/MobileNet/conv_1/biases/Assign"
  input: "^pixel_link/score_from_evaluation_360x640/MobileNet/conv_ds_14/pointwise_conv/weights/Assign"
  input: "^pixel_link/score_from_evaluation_360x640/MobileNet/conv_ds_14/pointwise_conv/biases/Assign"
  input: "^pixel_link/score_from_evaluation_360x640/MobileNet/conv_ds_8/pointwise_conv/weights/Assign"
  input: "^pixel_link/score_from_evaluation_360x640/MobileNet/conv_ds_8/pointwise_conv/biases/Assign"
  input: "^pixel_link/score_from_evaluation_360x640/MobileNet/conv_ds_5/pointwise_conv/weights/Assign"
  input: "^pixel_link/score_from_evaluation_360x640/MobileNet/conv_ds_5/pointwise_conv/biases/Assign"
  input: "^pixel_link/score_from_evaluation_360x640/MobileNet/conv_1/weights/Assign"
  input: "^pixel_link/score_from_evaluation_360x640/MobileNet/conv_1/biases/Assign"
}
versions {
  producer: 21
}
